model/model_dqn_2_retrain.pt (torch, 17520 bytes, 4 tensors)

layer1.weight f4 [256, 11]
000000 5e d2 51 be 1e a3 3a be 96 4b 0b bf 79 3d a2 be
       -0.20490405 -0.18226287 -0.5441221 -0.31687525
000010 cf 7a 9d be f4 68 31 bc f9 c3 60 be 25 ae a7 3e
       -0.30757758 -0.010828245 -0.21949758 0.3275005
000020 25 85 9a 3e 4e 71 0a 3e 9d a8 be 3e d2 9f 02 bf
       0.30179706 0.13519785 0.37238017 -0.51025116
000030 80 f6 52 be fa 19 8b 3b a3 80 83 bd f8 01 2d 3d
       -0.20601845 0.00424504 -0.0642102 0.042238206
000040 89 9c 9b 3e e2 63 bc be 18 67 1d 3f 30 fd 47 3e
       0.30392864 -0.36794955 0.61485434 0.19530177
000050 b3 86 d5 3e 0c 64 52 3f 50 24 2b be 4e c0 8c bd
       0.4170433 0.8218391 -0.16713071 -0.06872617
000060 4e 53 ff bd a0 b3 5f 3e 17 a9 13 be f8 65 e3 3d
       -0.12467061 0.21845865 -0.14419971 0.11103433
000070 3a 62 86 3e b5 9e e1 3a df 2f 81 be 30 13 33 bd
       0.26246816 0.0017213436 -0.25231835 -0.04371947
000080 48 cb 45 be b1 6e 87 3e e5 00 96 3f bf b9 a0 3f
       -0.19315827 0.26451638 1.1719023 1.2556685
000090 82 72 9e 3f 72 36 be 3f 32 27 a3 3f 96 ee 03 40
       1.2378695 1.4860365 1.2746336 2.0614371
0000a0 27 70 fa bf 54 ac 5b bf 93 a4 49 3f d5 ac 09 3f
       -1.9565476 -0.85809827 0.78766745 0.53779346
0000b0 44 e1 d9 be 33 b4 f7 be a0 af cf be a5 6a 3e bd
       -0.42554677 -0.4837967 -0.4056368 -0.046488423
0000c0 af ae 08 be 95 df a7 be ba bf 96 be cd c6 00 bf
       -0.13347887 -0.32787767 -0.2944315 -0.50303346
0000d0 85 c7 ff be e6 b1 9a be 09 8c cf be db a0 a6 3e
       -0.4995691 -0.3021385 -0.40536526 0.32544598
0000e0 11 8c 48 be f9 24 0c 3e 60 cd 0b 3f 60 e5 cf 3f
       -0.19584681 0.13685979 0.5461025 1.6241875
0000f0 c5 8a c3 3f 47 b5 60 3d e9 69 f6 3f 6c b4 7a 3f
       1.5276724 0.05486038 1.9251071 0.9793155
000100 f3 2c 7e 3f b5 e3 0c 40 f0 ad 19 bf 41 b3 86 bf
       0.9928734 2.2013981 -0.6003103 -1.0523454
000110 46 f8 4b bf 6f 80 e3 3e f3 d1 da be 82 cc 39 3e
       -0.7967571 0.44433925 -0.42738304 0.1814442
000120 4b d3 ed bc 1e 0f e6 3c 90 f8 24 3f a9 75 39 bd
       -0.029031416 0.02808338 0.64441776 -0.045278225
000130 8d 4e 0a 3e f9 5f 4e 3f bb a7 03 3e d5 12 84 3e
       0.13506527 0.8061519 0.12856953 0.25795618
000140 8e c8 eb be 1f 49 cd be 59 b3 bc 3c 1f 82 b9 3b
       -0.4605145 -0.4009485 0.023034738 0.0056612636
000150 e0 ba 87 3e bf 40 a8 3d cf 3f 44 bf d4 3d 28 bf
       0.26509762 0.08215474 -0.76659864 -0.6571934
000160 7e 7c ed 3d 08 67 4c bd 25 3c 24 be e0 0c 0c 3c
       0.115960106 -0.049902946 -0.16038568 0.0085479915
000170 cc 79 1b be 05 db 0c 3c 98 25 0e be 14 2b 6d bd
       -0.1518318 0.00859714 -0.13881528 -0.05790241
000180 3c dd 03 be 80 35 3d 3c 82 db 5e 3d 3e 0f a0 3d
       -0.12877363 0.0115484 0.054408558 0.07815407
000190 03 62 5f be 6d 81 1b 3e ae 15 00 bd 70 26 d9 be
       -0.21814732 0.15186091 -0.031270675 -0.42412138
0001a0 96 27 34 be a5 4f 96 3e 6b f4 e4 be b4 78 94 3d
       -0.17593226 0.2935764 -0.44717726 0.07249585
0001b0 c1 de 65 3c 19 cc 08 bf 01 e2 59 bf 83 84 30 3e
       0.014030159 -0.5343643 -0.8511048 0.17238049
0001c0 e0 7c e0 bd 85 72 de be 93 3d b8 be 4f 23 8b be
       -0.10961318 -0.43446746 -0.35984477 -0.27175376
0001d0 46 f3 84 be ac ee ed 3d bf bc f2 3d fe 6e 2a bb
       -0.25966853 0.11617789 0.11852407 -0.0026006098
0001e0 d2 f0 98 bd d3 e8 50 bf 82 ac 96 bf ff b4 81 3f
       -0.07467808 -0.8160526 -1.1771395 1.0133361
0001f0 d0 b8 e2 3f db 0a e4 3f 6d b6 18 3f 6f 04 51 bf
       1.771265 1.7815813 0.5965336 -0.8164739
000200 ef 81 00 3f 2b 1a c9 3e 65 d0 23 3e c4 fe de be
       0.5019826 0.39277777 0.15997465 -0.43553746
000210 7f 92 3e 3e 5c 14 93 3f 38 2d 7d 3e be 8c a9 3c
       0.18610571 1.1490588 0.24724281 0.020696994
000220 5e df b6 3f 70 5d 1b bf 5f e7 6c 3f ba 92 e2 3d
       1.4286916 -0.6068945 0.92540544 0.11063142
000230 73 2d 94 bf ed 1a 77 3f f4 aa 0f c0 38 2b 5f bf
       -1.157637 0.9652546 -2.2448092 -0.8717532
000240 d1 94 c1 bf 67 0b b8 bf c2 71 2b 3e 77 b3 a6 be
       -1.512354 -1.437848 0.16742614 -0.32558796
000250 01 b0 b8 3c d2 8d b7 bd 92 45 83 3e 15 fe 28 3f
       0.022544863 -0.08962597 0.25639015 0.660127
000260 76 66 a9 3e da e0 bf 3e 31 f1 0c 3d b1 c1 0f 3f
       0.33085984 0.37476236 0.034409706 0.56154925
000270 b6 d2 30 bd 90 8c 79 3f 23 75 f9 be a4 22 25 bf
       -0.0431697 0.97480106 -0.4872218 -0.6450598
000280 e4 f8 cc 3f a9 94 2c 3e 47 9d de 3f 76 7d de 3f
       1.6013455 0.16853584 1.7391747 1.7382038
000290 00 b0 b9 bd b7 b7 eb 3d f8 5a 82 bf 4a 5f 24 3f
       -0.090667725 0.1150965 -1.0184011 0.642079
0002a0 37 b4 b0 3f 98 68 9c 3f 43 b9 92 be f5 90 af 3e
       1.3804997 1.221942 -0.28656968 0.3429028
0002b0 45 f0 1d 3f a7 4f e1 3e e6 4c 9f bf 31 4f 1c be
       0.6169475 0.44006082 -1.2445343 -0.15264584
0002c0 d5 f4 a3 be f3 b0 02 bf 35 10 00 3f 4d fe 8d be
       -0.3202273 -0.51051253 0.5002473 -0.2773308
0002d0 28 31 57 be 27 f6 4c be 9d 3f de 3d 36 66 3a be
       -0.21014845 -0.20015775 0.10851977 -0.18203053
0002e0 0e a0 c4 be 02 5b 9d be 27 39 ad be 3a f0 08 bf
       -0.38403362 -0.30733496 -0.33832666 -0.53491557
0002f0 2b c7 63 be 1b ed 36 bf b2 e2 d9 be 4f 28 01 bf
       -0.22243945 -0.71455544 -0.42555767 -0.5045213
000300 c8 01 31 bf a4 ce b1 be ee 67 23 bf a7 3c f2 be
       -0.6914334 -0.34727967 -0.6383046 -0.473119
000310 41 84 ce be 24 be 26 bf 67 e6 5d bf 98 34 04 40
       -0.40335277 -0.6513388 -0.8667969 2.06571
000320 4f 69 06 40 2d 81 24 40 0b 89 2c 40 76 b9 80 3f
       2.1001775 2.5703843 2.6958644 1.0056598
000330 4c 5f 0d bf 92 e0 25 3f c8 af 1f 3f fc 62 be bc
       -0.55223536 0.6479579 0.62377596 -0.023240559
000340 fc bc 2c c0 ef db 62 ba d7 38 69 bf 36 eb 09 3d
       -2.6990347 -0.00086539885 -0.91102356 0.03367158
000350 32 e3 b1 3c 5f e9 7f be 9e e6 1b be 71 f7 b8 3d
       0.02171478 -0.24991368 -0.15224692 0.09031571
000360 a7 4f 07 3d 36 48 a0 3e 00 81 30 3d d3 c2 e8 bd
       0.033034947 0.31305093 0.043091774 -0.11365285
000370 04 fd a6 3e 92 3a b0 3e 6f 9a ce be b0 f5 59 be
       0.3261491 0.34419686 -0.40352198 -0.21285129
000380 1c 6a a9 bd cb 18 6b be b9 8b de bd e1 1b 97 be
       -0.08272192 -0.22958677 -0.10866494 -0.29513457
000390 c2 73 9d be 92 86 5e be 76 04 17 be 06 04 d2 3e
       -0.3075238 -0.21731022 -0.14747795 0.41018695
0003a0 86 d2 04 3f 4a f2 59 bf 1a d3 d9 3e 2a 5f 1b bf
       0.51883733 -0.8513533 0.4254387 -0.60692084
0003b0 58 1c 9c 3f f7 b9 66 3f d3 b9 ea be 8c 2d 93 bf
       1.219615 0.9012751 -0.45844898 -1.1498275
0003c0 a7 a5 c3 be d7 1b a6 3d 0d d5 1a bf e2 5e 6d bf
       -0.3821232 0.08110779 -0.6048134 -0.92722905
0003d0 c2 43 da 3e 53 32 18 bf 6d 67 7a be b3 41 c5 be
       0.4262982 -0.5945179 -0.24453516 -0.38526687
0003e0 d3 bf 9e bd cc 1a 0e be 84 12 e3 bd f8 67 a0 be
       -0.07751431 -0.1387741 -0.11087516 -0.31329322
0003f0 e4 34 45 be 5a 46 08 3e 79 ce 86 3d a9 37 94 bd
       -0.19258457 0.13308087 0.0658235 -0.07237179

layer1.bias f4 [256]
000000 1b 93 30 bf 99 cc e1 bf 0a f6 8c be 17 03 18 c0
       -0.68974465 -1.7640563 -0.27531463 -2.3751886
000010 3f 9a ab 3e 60 9f 16 c0 92 99 9e bf 3c fd 49 bf
       0.33516118 -2.3534775 -1.2390616 -0.7890203
000020 fd 99 74 be 06 e9 36 bf 99 63 3b bd 3a d0 16 c0
       -0.23886867 -0.71449316 -0.04574928 -2.3564591
000030 ed 3f 9e bf 14 03 9a bf 9f 4e e2 bf 5b d4 ea bf
       -1.2363259 -1.2032189 -1.7680243 -1.8346056
000040 56 41 dc be 89 08 3a 3f 4a e5 49 c0 68 27 fd be
       -0.43018597 0.72669274 -3.1546197 -0.49444127
000050 72 8f e2 be e9 c1 6a bf 69 d0 91 be c2 16 38 bf
       -0.44250065 -0.91702133 -0.28479317 -0.71909726
000060 df 15 cf be 87 27 df bf 25 ea 01 be 79 6f 4c be
       -0.40446374 -1.7433938 -0.12686975 -0.19964398
000070 ed 2d a5 be f4 f2 3d bf 0e 55 01 bf 9c c5 08 bf
       -0.322616 -0.7419884 -0.5052041 -0.5342653
000080 db 0d 82 bf b0 46 49 bf e2 9a 7d 3f f1 16 43 be
       -1.0160478 -0.78623486 0.9906446 -0.1905172
000090 56 0d 3a bf 91 92 61 bf 53 d9 f8 bf ed d8 e8 bf
       -0.726766 -0.8811427 -1.9441322 -1.81912
0000a0 33 7b 07 c0 d6 0b b4 be 0e c5 f3 bf ac 5e b0 bf
       -2.1168945 -0.3516528 -1.9044511 -1.3778892
0000b0 e3 fe 88 be 29 ea 47 bf 0c fb 46 bf 11 3d 1f c0
       -0.26756963 -0.78091675 -0.7772682 -2.4881022
0000c0 c8 e8 ad be 6d 46 0c c0 f6 25 01 40 40 a3 b6 be
       -0.3396666 -2.1917984 2.017942 -0.35671425
0000d0 91 a4 8b bf e4 9d 28 bd 96 14 eb 3e cf 46 ce bf
       -1.0909597 -0.0411662 0.45914143 -1.6115359
0000e0 be 4f 72 bf 01 d2 24 c0 d6 e6 40 bd b2 7f 7f 3c
       -0.94652927 -2.5753176 -0.047095142 0.01559441
0000f0 48 5e 13 c0 82 1a bc bf 0c 9b b4 be 11 08 df bf
       -2.3026295 -1.469559 -0.3527454 -1.7424337
000100 a1 3c a7 be 6d ea e5 bf c9 2b 09 bf 0c de e3 bf
       -0.32663444 -1.7962166 -0.53582436 -1.7802138
000110 33 50 7e 3e 3e 02 c2 bf b4 aa 60 be 16 40 57 bf
       0.24835281 -1.5156934 -0.21940118 -0.8408216
000120 b7 ab c9 be 64 c9 92 40 e6 1b 06 c0 19 33 1c bf
       -0.3938882 4.587084 -2.0954528 -0.6101547
000130 49 4b ef bf b3 01 04 c0 f9 31 3a c0 12 76 16 c0
       -1.869485 -2.0626037 -2.9093 -2.3509564
000140 10 78 a6 bf 61 b9 dd bf 18 17 b5 bd 89 6f 56 bf
       -1.300539 -1.7322198 -0.088422954 -0.8376394
000150 9e d7 b2 be 6b cb 47 bf 41 e1 57 bf 44 67 87 3e
       -0.34930128 -0.78044766 -0.84328085 0.26445973
000160 eb ac 73 bf dc 8e b5 be a7 f9 e8 bf a7 b3 d1 bf
       -0.95185727 -0.35460556 -1.8201188 -1.638295
000170 56 91 8f bf 04 8c c1 bf 8b 88 81 bf 46 32 95 bf
       -1.1216228 -1.5120854 -1.0119795 -1.1655967
000180 3f fa c7 be fb b3 c2 bf 82 7b 1b bf 25 0f 43 3f
       -0.3905811 -1.5211176 -0.6073533 0.76194984
000190 d6 9d 8e be 33 d6 cf be cc ec 06 3f 73 86 3e 40
       -0.27854794 -0.4059311 0.52705073 2.9769561
0001a0 72 7f ed bd 7f 09 33 bf 0d 0e f8 bf ea 48 bd bf
       -0.11596574 -0.69936365 -1.9379288 -1.4787877
0001b0 48 3c 69 bf 7f 62 f9 bf 1a 69 94 bf 12 ee 00 bf
       -0.91107607 -1.9483184 -1.1594574 -0.50363266
0001c0 a9 56 3c be 05 1a 19 bf 54 fc 10 c0 70 3f f2 bf
       -0.18392433 -0.5980533 -2.265401 -1.892561
0001d0 fc ea bc bf 17 ad 8b bf 5e b5 ff be 61 4d c6 3e
       -1.4759212 -1.0912198 -0.4994306 0.3873091
0001e0 52 ee e3 3e 0b 27 f2 bf 92 6d e5 be dd 5b 55 bc
       0.4451776 -1.8918165 -0.44810158 -0.01302239
0001f0 d9 d8 d9 3f 5b 18 e1 be 7b 11 56 40 1a 24 d4 bf
       1.7019302 -0.43963894 3.344817 -1.6573517
000200 23 7e b1 bf 30 16 99 bf fa 27 db bf 7b db af bf
       -1.3866619 -1.1959896 -1.7121575 -1.3738855
000210 89 ea 0c c0 94 3d 9f bf 95 c2 5e be e9 22 a7 bf
       -2.201815 -1.2440667 -0.21753915 -1.3057529
000220 0f 6f 98 3e f0 9a d6 bd 8c d9 93 3e 9f a0 87 3f
       0.2977223 -0.10478771 0.28876913 1.0595893
000230 b6 8a 01 bf 13 43 59 be 2e b0 05 c0 5f a3 37 c0
       -0.5060228 -0.21216993 -2.0888782 -2.8693464
000240 86 10 05 c0 f1 d9 02 c0 a6 71 a4 be b5 f5 22 bd
       -2.0791335 -2.044552 -0.32117957 -0.039785106
000250 58 07 e2 bf ef b3 d3 bd 23 5e ca 3e d0 c4 97 bf
       -1.7658491 -0.10337054 0.39524946 -1.1856937
000260 04 9b 14 3f 30 a5 d8 be 30 48 af be e1 41 0d bf
       0.58049035 -0.42313528 -0.34234762 -0.5517865
000270 f1 cc 01 c0 4a ba 9f be d4 8c 2d be ff 55 3a bf
       -2.0281336 -0.31196815 -0.16948253 -0.7278747
000280 f5 5e e2 bf 41 59 04 c0 08 f5 e8 bc 60 7b bf bf
       -1.7685229 -2.0679476 -0.028437153 -1.4959526
000290 cd e7 5a bf ad 6e b5 bf 91 6e c9 be 5e fb 06 c0
       -0.8550995 -1.41744 -0.39342168 -2.1090922
0002a0 e5 86 f0 be e1 58 d4 bf 3c f2 d6 3d 09 f0 f1 3e
       -0.46977916 -1.6589624 0.10495421 0.47253445
0002b0 47 d0 fc bf 28 f9 92 be 37 e0 69 bf 43 89 15 be
       -1.9751061 -0.28705716 -0.9135775 -0.14603142
0002c0 a0 a0 86 bf 42 a3 99 bf e2 1f a7 be b1 c1 08 c0
       -1.0517769 -1.2002947 -0.32641512 -2.136822
0002d0 06 ec 78 bf bb a8 12 bf 04 7a 48 be 13 82 b9 bf
       -0.97235143 -0.5728871 -0.19577795 -1.449282
0002e0 6e 93 fb 3e f8 a0 38 3f 68 68 e6 bf 95 26 ac bf
       0.49135917 0.7212062 -1.8000612 -1.3449274
0002f0 ac ad b5 bf 32 d8 5f bf 2f 70 a9 bf e9 7c 9c be
       -1.4193625 -0.8743926 -1.3237361 -0.3056405
000300 f3 93 8d bf 3c ae b7 be a9 21 16 3f 96 73 e0 bf
       -1.1060776 -0.35875118 0.5864511 -1.7535274
000310 f1 a6 ce 3f 22 5e 0d c0 20 91 5c be 3d e6 2d bf
       1.6144696 -2.2088704 -0.21539736 -0.6792944
000320 57 d1 bd be 17 1b 16 bf 1a 32 c0 3b 5b b5 1f c0
       -0.37073776 -0.58635086 0.0058653476 -2.495444
000330 e0 0c 01 c0 b9 61 63 bf e8 36 60 bf 47 bf fd 3d
       -2.0164108 -0.8882099 -0.8758378 0.12389999
000340 1a 60 2e c0 47 43 09 c0 49 11 1b bf df 82 80 3f
       -2.7246156 -2.1447313 -0.6057325 1.0039939
000350 b1 28 5e be 0a b7 58 bf 0f 45 0f c0 f0 cd d3 be
       -0.2169521 -0.84654295 -2.23859 -0.41368055
000360 8e e5 e4 bc 0c 56 9d bf 79 19 e1 bf 16 7a eb be
       -0.027941491 -1.2291884 -1.7585899 -0.45991582
000370 e9 fa dd bf cd 91 02 c0 c6 af cc bf c7 47 88 3d
       -1.7342197 -2.040149 -1.5991142 0.066543154
000380 33 9a 32 bf c7 15 ed 3f b1 68 43 be 3c b3 73 3f
       -0.6976654 1.8522271 -0.19082905 0.95195365
000390 ae b6 f6 bf 00 68 c9 bf 0d 97 69 3f 7f 3d aa bd
       -1.92745 -1.5734863 0.9124611 -0.08312511
0003a0 96 8c 22 bf 22 89 bc bf bd 35 55 bf d6 28 01 bf
       -0.6349577 -1.472935 -0.83285123 -0.50452936
0003b0 03 70 85 be 68 e0 c1 bf 4d a0 3a bf 98 65 4b 3e
       -0.2606202 -1.5146608 -0.7290085 0.19862974
0003c0 8c f0 9b bf 81 7f ac be 17 47 14 bf 16 c9 47 be
       -1.2182784 -0.33691028 -0.57920974 -0.19510302
0003d0 46 45 97 3e 99 ab 8b bd 89 a1 aa bf 5d 6f ad bf
       0.2954504 -0.06819839 -1.3330547 -1.354961
0003e0 a5 f7 3f be a7 d3 94 bf 28 f8 2b bc 30 60 8b bf
       -0.18746813 -1.1627091 -0.010496177 -1.0888729
0003f0 1c 74 c3 bd a3 3b 47 c0 a0 87 2e c0 d6 63 34 bf
       -0.095436305 -3.113015 -2.727028 -0.7046484

layer2.weight f4 [3, 256]
000000 a8 83 16 3c 97 14 49 bc 8d bd 24 bd 7d 37 c4 be
       0.009186663 -0.012272975 -0.040219832 -0.38323584
000010 b7 19 6b 3f 0d 31 89 be 13 92 97 3a 99 0c ff 40
       0.9183611 -0.26795235 0.0011563919 7.970288
000020 30 2a 02 3d 23 bd 99 3c e4 46 00 3c 95 11 aa be
       0.031778514 0.018766945 0.007829402 -0.3321654
000030 57 90 92 be 84 c8 49 39 29 0f 13 bf 32 7b 35 bd
       -0.28625748 0.00019243552 -0.5744501 -0.04430694
000040 dc c5 06 3e 5d 41 76 3e 90 50 7e be 96 1d b6 bb
       0.13161415 0.24048372 -0.2483542 -0.005557726
000050 c6 1f 94 ba 5d 22 14 bd eb 9a e3 bc e0 f4 9b bb
       -0.0011300973 -0.036165584 -0.027783832 -0.004759416
000060 f3 d3 09 3a 1b a2 76 bd 65 4f 30 3d 86 9f f0 3c
       0.0005257718 -0.06021319 0.043044467 0.029372942
000070 94 e9 1a 3b 32 07 c9 3d 1c 4f d4 3c a9 55 1d 3e
       0.0023637759 0.098158255 0.025916629 0.15364708
000080 ce 4f a8 bc 97 e9 83 3f ac 34 c1 3d c0 83 86 3d
       -0.020545866 1.0305661 0.094338745 0.06568098
000090 8e 08 74 3d 8c a9 58 3f 5b 3f 4f 40 6e d6 d5 be
       0.05957847 0.8463371 3.238242 -0.4176516
0000a0 5c 16 62 3d 8c 5e de 39 ba d9 69 be 15 27 c9 be
       0.055197105 0.00042413583 -0.22836962 -0.3928763
0000b0 97 3d 16 3c 46 23 7c 3c 31 e9 3c 3e 48 7d 8b be
       0.009169958 0.015389269 0.1844833 -0.2724402
0000c0 64 59 52 b9 0f 0f bf 40 c7 0e 75 3b 75 cd a1 bc
       -0.00020060461 5.970588 0.0037392841 -0.01975129
0000d0 d1 27 39 40 c1 bd 27 3c 06 11 c8 40 35 97 3b 40
       2.8930552 0.010238112 6.252078 2.931104
0000e0 49 c0 ce bb 8b b8 a9 40 38 04 47 be 14 7a 90 be
       -0.0063095433 5.303777 -0.19435203 -0.28218138
0000f0 bb c8 c7 be e0 4b 08 be e9 be d6 bb db 9b bd be
       -0.39020333 -0.13310194 -0.00655352 -0.3703297
000100 a5 ba 18 bd 5c 13 11 bf e2 b9 67 3e f3 6a b9 bd
       -0.037287373 -0.56670165 0.22629502 -0.09053602
000110 ec 16 6d 3f 95 a1 87 be 5c 2f 4f 3d 58 61 92 bc
       0.926131 -0.26490465 0.050582275 -0.017868683
000120 4c 27 b6 bd 7b df e6 3f 87 fb 14 be 82 2b ab bc
       -0.08894214 1.8036951 -0.14549075 -0.02089477
000130 80 ab 96 bf ea 48 7c bf 36 5f ca bd 57 49 60 be
       -1.1771088 -0.9854876 -0.09881441 -0.21902977
000140 9d 78 6a be 7f 38 6b bf ac cc 78 3f e4 62 ce 3a
       -0.22897573 -0.9188308 0.97187304 0.0015746024
000150 f4 df bb 3c 76 da 59 3d 03 2f 61 3c 65 da ff 3f
       0.022933938 0.053186856 0.013744119 1.9988524
000160 ea c4 bf bc 76 63 1d bd f8 a6 f3 3f 04 cb 0d 3e
       -0.023409326 -0.03842493 1.903533 0.13846976
000170 90 37 91 bc bd b6 a6 40 e7 36 18 be 47 9f fa bd
       -0.01772669 5.209807 -0.14864694 -0.12237411
000180 d6 59 8e 3e 5f c7 27 bf 51 48 f6 3e 87 7d fe bb
       0.27802914 -0.6553859 0.48102048 -0.007766429
000190 ec 73 e0 bc 22 ab 89 3f 5d ee 86 3d 7f 90 8d 3f
       -0.027399026 1.075535 0.06588433 1.1059722
0001a0 7a 4d 7c bd 89 41 f1 3a cd 17 55 be e0 71 68 40
       -0.061597325 0.0018406372 -0.2080986 3.6319504
0001b0 99 9c 94 bd 31 0b a2 be 3f ab 2e 40 94 bc 8e 3e
       -0.07256431 -0.31649163 2.729202 0.2787825
0001c0 13 bd a6 bc cb f2 fc 39 13 27 e0 be f9 f1 2d be
       -0.02035383 0.0004824608 -0.4377981 -0.16986836
0001d0 20 27 d7 3d 6d 78 9a 3f af 88 68 3a 6c b3 62 be
       0.105055094 1.2068001 0.0008870465 -0.22138757
0001e0 ac 63 d2 be e4 b5 00 41 3c 56 68 3e 69 5e a3 b9
       -0.4109167 8.044407 0.22689146 -0.00031160124
0001f0 4b fe 20 3f 8f 74 e6 bb 04 1b 9a 3f 27 b0 86 be
       0.6288802 -0.007032938 1.2039495 -0.2630627
000200 be 8e 42 be cc 68 33 bc 44 a9 0b bf 93 0e ec be
       -0.18999764 -0.0109502785 -0.54555154 -0.4610487
000210 62 d8 db 3a 4d e4 83 bf 2a 34 cb bd 2a 6f 0c 3d
       0.0016772861 -1.0304047 -0.09922059 0.0342857
000220 77 4a 36 bb 51 d7 9e 3c 27 e0 c1 bc 06 77 b1 3f
       -0.002781538 0.01938978 -0.023666454 1.3864448
000230 47 06 d8 3e f0 32 ae 3e c5 2b 26 40 5d f5 4a be
       0.4219229 0.34023237 2.5964215 -0.19820161
000240 16 67 87 be f9 c4 81 be 7d fc 80 3c 18 17 eb 3e
       -0.26445836 -0.2534559 0.015745396 0.45916057
000250 c1 a3 13 41 33 c7 d1 bc 9b 53 6d 3c 23 a1 d7 bd
       9.227479 -0.02560768 0.014485265 -0.10528781
000260 3c bc 4a bc 43 06 a3 bd 59 01 24 3c 8a 4b 05 3e
       -0.01237398 -0.07960179 0.010010087 0.13017097
000270 2a 44 ca 3e 4a ec 69 3d ad 48 5c bc 47 7e 51 3f
       0.3950513 0.05711011 -0.013445062 0.8183331
000280 d4 2e ee bd 02 b2 db bd 25 82 5f bc 12 e4 a4 3b
       -0.116300255 -0.10727312 -0.013641869 0.005032071
000290 e3 36 2c 3b bb fb c4 be cc bc 0b bc 0f 5a c7 bd
       0.0026277832 -0.38473305 -0.008528899 -0.09733974
0002a0 96 1d 62 3d 3a 69 61 40 b8 77 5f 3f 91 0d 70 ba
       0.055203997 3.5220475 0.8729205 -0.0009157295
0002b0 25 e9 b4 40 b1 7e 9a 3b fc 6b e6 3b 8f 05 0e bf
       5.65346 0.00471481 0.0070319157 -0.5547723
0002c0 5d fe 8a bf 1c eb 28 be 58 fe 81 bd f4 90 a1 bd
       -1.0858876 -0.16495937 -0.0634734 -0.07888976
0002d0 3c 8a a0 be d7 68 99 3e 9a e4 5a be 19 b7 6b bf
       -0.31355464 0.299628 -0.21376267 -0.9207626
0002e0 5f 0c 8d 3f 07 2a f1 b5 fd a4 1c be cf ee 48 3c
       1.10194 -1.7968131e-06 -0.15297313 0.012263968
0002f0 2d 65 9a 3e db f3 ea bc 14 1f 78 bf 2e fe 48 bc
       0.30155316 -0.028680732 -0.9692242 -0.012267632
000300 4e 54 d9 be bf 2a 69 3d 8b 47 0b be 5a eb 0b 3f
       -0.42447132 0.05692553 -0.1360151 0.54655993
000310 f3 eb 24 3e 89 c9 74 40 cc 68 49 bd e9 49 dd 3a
       0.16105632 3.8248007 -0.049172208 0.0016882989
000320 09 2e 26 3e e3 8d b8 3b e1 4e c4 be 2d 82 94 40
       0.16228499 0.0056321486 -0.3834143 4.6408906
000330 b1 9c 12 bf 41 e4 83 3f cd 67 17 bd c6 cd e0 3f
       -0.5727034 1.0304033 -0.036964227 1.7562797
000340 5a a8 33 be 5b da 92 be 4e a9 9a bc f7 de a5 3f
       -0.1754469 -0.28682217 -0.018879559 1.2958668
000350 05 95 86 bb b7 be b3 ba 16 4e 80 40 b2 24 0a 3f
       -0.00410712 -0.0013713454 4.009532 0.5396224
000360 3e 1f 2c be c1 86 22 be 1f da b2 be 0f d0 3e 3f
       -0.16808793 -0.15871717 -0.34932038 0.7453622
000370 3c 1d bc bd 71 e8 20 bd df 6e a1 3d 7b ec 7f 3e
       -0.091852635 -0.039284173 0.07882475 0.24992554
000380 0f fb af 3c fe 17 30 be fd e7 00 3c 7a ad 94 3f
       0.021482019 -0.17196652 0.00786781 1.1615441
000390 b1 68 18 be 37 87 a8 be cf 06 66 3e 6b 79 ff 3c
       -0.14883687 -0.3291566 0.22463535 0.031185826
0003a0 82 9e 15 3f 2d c4 88 bd c5 fa 31 bd 4a 42 8a 3e
       0.5844499 -0.066780426 -0.043452043 0.270037
0003b0 35 20 5b 3d c2 d2 8e bd 9f e3 c1 bc 87 fb 1d 40
       0.053497512 -0.069737926 -0.023668109 2.468477
0003c0 5a c6 89 be 9a a0 d8 3c 31 ed c5 bd d9 2c 80 3d
       -0.26909143 0.026443768 -0.09664381 0.06258554
0003d0 e6 c3 10 40 06 fc d9 bc 07 c5 44 be 54 da 0e bf
       2.2619567 -0.026609432 -0.19215785 -0.5580189
0003e0 c5 83 c4 40 d0 0a 09 40 2e 30 64 40 b8 7a b3 3f
       6.141085 2.141285 3.5654407 1.4021826
0003f0 67 01 13 3f 92 e9 1f bf ae 79 e7 bd 65 c0 e1 3c
       0.57424015 -0.62465775 -0.113025054 0.027557561

layer2.bias f4 [3]
000000 bb ca 32 40 1c ff 9b 3e 25 92 1c 3e
       2.7936237 0.3046807 0.15290125
