model/model_dqn_1.pt (torch, 281200 bytes, 6 tensors)

layer1.weight f4 [256, 11]
-0.55081 0.15238419 -0.16531147 -0.10980746 0.23249373 0.106692284 -0.15463313 0.031337697
-0.12157441 -0.07333018 -0.20123993 0.16796981 -0.34226668 -0.19281265 -0.13977079 -0.17294304
0.192564 -0.2615698 -0.70063496 -0.38986486 -0.24994946 0.20432785 0.08328717 0.074011765
-0.24046957 0.011355187 -0.17804313 -0.20966952 0.0023760772 -0.17134073 -0.16793568 -0.25839812
-0.18690921 0.18766586 0.35211614 -0.5342822 0.24487714 -0.37300745 -0.0017513809 0.06435924
-0.1938714 0.088228375 -0.05340664 0.04314711 -0.08121573 0.10380881 -0.29712623 0.49153972
-0.47432843 0.1373671 -0.4930164 0.40413383 -0.4553906 -0.74916095 -0.58635473 -0.27834746
0.053118385 0.16539903 -0.010860932 -0.04745101 -0.23979388 -0.07454471 -0.23423204 -0.011315303
-0.22260779 -0.23904052 -0.36492592 0.2228338 0.33666083 0.051862497 -0.06786383 -0.08200646
-0.32032004 0.1841146 0.26915807 0.20570257 0.41035423 -0.5757513 0.16092591 0.16502164
0.14715128 -0.37302172 0.10861709 -0.22804162 -0.30789316 0.1895521 -0.3408929 -0.5027064
0.039984133 0.08192649 0.17032756 -0.2580573 0.01908012 -0.22390538 -0.17184353 0.28020594
0.033621635 0.32797524 0.23284632 -0.2793152 0.09036293 -0.5317363 -0.11482386 0.19598898
0.32033914 0.32021 -0.16268897 -0.18290186 -0.34990278 -0.38804835 -0.035782777 -0.20505989
-0.37472263 -0.20579438 0.22879958 -0.17334042 -0.22719282 -0.009179167 -0.26779497 0.12004347
-0.29203692 -0.020465767 0.14792141 0.13205153 -0.13189207 -0.072712265 -0.095353104 -0.05646865
-0.27114952 -0.1623917 -0.24980444 -0.228099 -0.29672644 -0.44718045 -0.3776228 0.31153083
-0.28227553 0.37412167 -0.38824967 -0.7747758 -0.4874451 0.1940071 -0.5700393 -0.1653387
0.08965358 -0.2117188 0.028589457 -0.11227004 0.12796956 -0.25537285 -0.2847674 -0.12792143
-0.21238048 -0.13257831 -0.31619215 -0.29737434 0.072080314 -0.33771718 -0.10062454 -0.16407937
-0.30078027 -0.021437833 0.28676835 -0.30142376 -0.011780091 0.26443225 -0.016017793 -0.5254347
-0.28531727 0.15246044 -0.3110192 0.121011175 -0.48569432 0.030620104 -0.15472923 -0.6282712
0.25947937 -0.3477683 0.044801116 -0.059386835 -0.10751987 -0.03494752 0.0031065843 -0.058948353
-0.28044817 -0.38305098 0.114380926 0.09813389 -0.06950521 0.12980814 0.31818178 -0.17138086
-0.26511556 0.418932 -0.45858496 0.19129083 -0.21570392 -0.38374764 -0.3778132 -0.119517125
0.45973814 0.17301679 -0.12806006 0.33182228 0.27799833 -0.1500608 -0.44461593 -0.23886365
-0.39121816 -0.0024002595 -0.28301612 0.1282343 -0.34629685 0.36917782 -0.17446472 0.32733423
0.1930558 -0.5309935 0.014024095 -0.50990653 -0.2203655 -0.007987827 -0.015109376 -0.27995074
-0.22437552 -0.23681559 -0.22280312 -0.022958698 0.029622143 0.029750615 0.10240479 0.40435585
0.10033305 -0.27451444 0.2501695 -0.1698857 -0.41445982 0.23597834 -0.19795056 0.213736
-0.43874586 -0.37876552 -0.111652166 -0.35247558 -0.07800222 -0.36846727 -0.5082951 0.080578744
0.005151217 -0.48380092 -0.4870536 0.20901302 -0.40955842 -0.009819862 -0.029944874 -0.02581574
00000000: e201 0dbf 9a0a 1c3e 6947 29be bce2 e0bd
00000010: d612 6e3e 7c81 da3d 2658 1ebe f55b 003d
00000020: 01fc f8bd 222e 96bd d711 4ebe 4700 2c3e
00000030: 943d afbe ae70 45be 1320 0fbe fb17 31be
00000040: 7f2f 453e 7aec 85be d05c 33bf 5e9c c7be
00000050: c0f2 7fbe 523b 513e 7792 aa3d 7b93 973d
00000060: a83d 76be 1b0b 3a3c f050 36be 9bb3 56be
00000070: f6b7 1b3b f273 2fbe 55f7 2bbe c24c 84be
00000080: 2165 3fbe 7b2b 403e 9148 b43e b8c6 08bf
00000090: 13c1 7a3e d5fa bebe 978e e5ba c7ce 833d
000000a0: 3986 46be 14b1 b43d ecc0 5abd 06bb 303d
000000b0: 6f54 a6bd b799 d43d ee20 98be 18ab fb3e
000000c0: 2ddb f2be f6a9 0c3e a56c fcbe a1ea ce3e
000000d0: f528 e9be 03c9 3fbf 581b 16bf 8f83 8ebe
000000e0: aa92 593d 5d5e 293e 0df2 31bc fe5b 42bd
000000f0: 878c 75be e6aa 98bd 86da 6fbe d263 39bc
00000100: 4cf3 63be 0ac7 74be 92d7 babe 8b2e 643e
00000110: cf5e ac3e c56d 543d 31fc 8abd 01f3 a7bd
00000120: fd00 a4be 8a88 3c3e 16cf 893e b2a3 523e
00000130: f319 d23e 7064 13bf c3c9 243e 6ffb 283e
00000140: d3ae 163e b4fc bebe a372 de3d be83 69be
00000150: 2ca4 9dbe f219 423e 8489 aebe 5eb1 00bf
00000160: 67c6 233d 13c9 a73d 596a 2e3e 1620 84be
00000170: e94d 9c3c 7447 65be c0f7 2fbe 2777 8f3e
00000180: d7b6 093d 5fec a73e 446f 6e3e 6702 8fbe
00000190: 3310 b93d df1f 08bf c628 ebbd 56b1 483e
000001a0: 7e03 a43e 91f2 a33e f097 26be a04a 3bbe
000001b0: 7526 b3be 46ae c6be f690 12bd 38fb 51be
000001c0: a5db bfbe c3bb 52be 704a 6a3e 2780 31be
000001d0: 3ca5 68be 3864 16bc 6c1c 89be 5ad9 f53d
000001e0: dd85 95be d3a7 a7bc b678 173e 8438 073e
000001f0: b70e 07be 2bea 94bd 7d48 c3bd ac4b 67bd
00000200: 1cd4 8abe 034a 26be bccc 7fbe c992 69be
00000210: 87ec 97be d6f4 e4be c757 c1be f880 9f3e
00000220: 6b86 90be e08c bf3e a9c8 c6be b557 46bf
00000230: 6792 f9be cca9 463e 18ee 11bf 8c4e 29be
00000240: 4c9c b73d d0cc 58be 7034 ea3c d6ed e5bd
00000250: 740a 033e 3bc0 82be 08cd 91be d6fd 02be
00000260: 457a 59be 9cc2 07be f0e3 a1be 7341 98be
00000270: d89e 933d 44e9 acbe 3d14 cebd 6c04 28be
00000280: dfff 99be 659e afbc 4dd3 923e 3754 9abe
00000290: 4801 41bc aa63 873e bf37 83bc e382 06bf
000002a0: 1b15 92be 971e 1c3e e93d 9fbe b5d4 f73d
000002b0: edac f8be 03d7 fa3c 5771 1ebe 62d6 20bf
000002c0: 7bda 843e b00e b2be 6081 373d 9c3f 73bd
000002d0: 6133 dcbd 2125 0fbd d697 4b3b d473 71bd
000002e0: e796 8fbe 421f c4be 8c40 ea3d 6cfa c83d
000002f0: bf58 8ebd 6dec 043e b9e8 a23e 777e 2fbe
00000300: 3abd 87be 417e d63e a6cb eabe bee1 433e
00000310: 7de1 5cbe 927a c4be bb70 c1be 65c5 f4bd
00000320: cc62 eb3e 502b 313e 2d22 03be 9ce4 a93e
00000330: cc55 8e3e 8aa9 19be b3a4 e3be ac98 74be
00000340: bf4d c8be ac4d 1dbb 7de7 90be da4f 033e
00000350: d24d b1be e004 bd3e e1a6 32be 5a98 a73e
00000360: 6bb0 453e 31ef 07bf 51c5 653c 3c89 02bf
00000370: 7ea7 61be 60df 02bc 518d 77bc b455 8fbe
00000380: b2c2 65be c97f 72be 8026 64be e113 bcbc
00000390: 23aa f23c 90b7 f33c 9ab9 d13d bb07 cf3e
000003a0: 6a7b cd3d 288d 8cbe 3716 803e 84f6 2dbe
000003b0: 1434 d4be 4ea4 713e 8db3 4abe 9cdd 5a3e
000003c0: 4ca3 e0be 8eed c1be e4a9 e4bd ae77 b4be
000003d0: a1bf 9fbd bea7 bcbe a11f 02bf 7806 a53d
000003e0: 8acb a83b c1b4 f7be 175f f9be 8207 563e
000003f0: a4b1 d1be 7de3 20bc f44e f5bc 887b d3bc

layer1.bias f4 [256]
-0.38368326 0.0019298127 -0.04978639 -0.04737429 -0.03285478 -0.29757848 -0.2551859 -0.012869805
-0.10983641 0.66011167 0.008553695 -0.1018038 0.13446352 -0.103026465 -0.2640948 0.19312255
-0.21654315 -0.020359153 0.32569623 0.13628373 0.080846325 -0.10619766 0.21616134 -0.2946479
-0.13479413 -0.03748229 -0.045040593 -0.099165015 0.1301573 0.09203324 0.07816233 -0.21656018
-0.16754259 -0.24145508 0.0010882717 -0.18045156 -0.4284247 0.4063749 -0.0019201093 -0.011041649
-0.19109552 -0.092951566 -0.28260943 0.15559328 -0.044097837 -0.05701696 -0.33192307 -0.21849708
-0.16235352 -0.30536056 0.14110847 -0.042476874 -0.3261188 -0.21998389 -0.20803757 -0.35776353
-0.02513253 0.11570357 -0.16415235 -0.52923495 -0.018450672 -0.02588195 0.20910953 -0.17613143
-0.2913191 0.20695911 -0.12894514 0.009496797 -0.23028457 -0.12166679 -0.2866783 -0.31427303
-0.05034441 -0.39997694 -0.24246617 -0.12675028 -0.18430388 0.034668673 -0.17502266 -0.18907838
-0.25977653 0.016079722 -0.23179916 -0.086661726 -0.034263078 0.1754298 -0.08857741 -0.13640067
-0.07486036 -0.33432734 -0.37092072 0.353696 -0.28335628 -0.070519604 -0.21642293 -0.0029162262
-0.13381705 -0.23576584 -0.032006115 -0.07981812 0.014946166 -0.31071407 -0.3919025 0.013480387
0.02377367 -0.16098502 -0.2929145 0.041750263 -0.45952058 -0.21702603 0.33386123 -0.2349139
-0.339697 -0.24404101 -0.12398873 -0.01517851 -0.30082098 -0.025352778 0.048098262 -0.1602218
-0.40634376 0.3220469 0.4413099 -0.021343365 -0.34359768 -0.14013633 0.2606668 -0.07334106
-0.07327126 -0.19547427 -0.24627039 0.12387647 0.20737949 -0.14189732 0.15523443 -0.012200061
-0.29471415 -0.010819089 -0.3975054 -0.085638635 0.04512825 -0.22276749 -0.27963048 -0.331306
-0.20393059 -0.2393225 -0.04628983 -0.117500566 -0.16954643 0.611254 0.012069657 0.09962493
0.1477467 -0.3382651 -0.08298026 -0.12102246 -0.20685647 -0.17194185 0.055183623 -0.33592138
-0.36225933 0.030767143 -0.15434833 0.4379071 -0.06084828 -0.05367872 0.02918588 0.11008339
-0.055404983 -0.084666416 -0.36372793 -0.12012377 -0.21101849 -0.18670547 0.38703057 -0.07050531
-0.42383456 0.1907812 -0.29539007 -0.050789595 -0.32742336 -0.23366414 -0.1425761 -0.3957618
-0.34180936 -0.3367389 -0.12635277 0.06973139 -0.068349846 -0.12684165 0.17964877 -0.065725446
0.10732993 -0.15765433 0.00035673936 -0.037907433 -0.04332281 -0.020308815 0.03379143 -0.27647522
-0.18546538 -0.1961164 -0.123317964 -0.3895987 -0.29706383 -0.13062091 0.010240239 -0.30336735
0.05768857 -0.13611037 -0.28357458 -0.2870825 -0.06480919 -0.20009996 -0.24971083 0.03186281
-0.01984929 0.017799195 -0.20650204 -0.35620272 -0.2920541 -0.26292974 0.05178606 -0.423529
-0.032598183 -0.096771106 -0.35334852 -0.29707658 0.12698424 -0.14955764 -0.4345797 0.3371461
-0.32411394 -0.00992885 -0.38348252 0.052418876 0.112608336 0.03542012 -0.15063365 0.30884856
0.11740144 -0.31778052 -0.24268074 -0.13065408 -0.10629031 -0.09104215 -0.43996164 0.025899524
-0.33204484 -0.046600565 -0.04839534 -0.44939044 -0.33440647 -0.24561511 0.0057192883 -0.31857264
00000000: 2272 c4be c5f1 fc3a d0ec 4bbd 8b0b 42bd
00000010: bc92 06bd 355c 98be baa7 82be e0db 52bc
00000020: e9f1 e0bd 14fd 283f cc24 0c3c 837e d0bd
00000030: ceb0 093e 8aff d2bd 6f37 87be ebc1 453e
00000040: 7dbd 5dbe 3dc8 a6bc a8c1 a63e f68d 0b3e
00000050: c292 a53d 297e d9bd 6659 5d3e 17dc 96be
00000060: 7907 0abe 0887 19bd 7c7c 38bd 0717 cbbd
00000070: f547 053e ec7b bc3d 9213 a03d f4c1 5dbe
00000080: 4990 2bbe 0040 77be 57a4 8e3a 4bc8 38be
00000090: 7b5a dbbe 5f10 d03e 2dac fbba 08e8 34bc
000000a0: 8bae 43be 645d bebd 2fb2 90be d853 1f3e
000000b0: ef9f 34bd 9e8a 69bd d2f1 a9be b3bd 5fbe
000000c0: 0040 26be 3858 9cbe bd7e 103e 3bfc 2dbd
000000d0: 0bf9 a6be 7543 61be cd07 55be c82c b7be
000000e0: bce2 cdbc fef5 ec3d 8e17 28be f17b 07bf
000000f0: dd25 97bc 6206 d4bc cf20 563e cc5b 34be
00000100: c727 95be 17ed 533e 320a 04be 7498 1b3c
00000110: b8cf 6bbe 702c f9bd 80c7 92be 65e8 a0be
00000120: f135 4ebd c7c9 ccbe 0d49 78be d3ca 01be
00000130: 28ba 3cbe bd00 0e3d 2439 33be c39d 41be
00000140: 6e01 85be 9fb9 833c c25c 6dbe b47b b1bd
00000150: 7157 0cbd dfa3 333e 1368 b5bd 9eac 0bbe
00000160: 6350 99bd f42c abbe 52e9 bdbe a417 b53e
00000170: 1314 91be 956c 90bd f99d 5dbe 281e 3fbb
00000180: 5607 09be 9a6c 71be d818 03bd af77 a3bd
00000190: c4e0 743c ea15 9fbe 72a7 c8be d7dc 5c3c
000001a0: 00c1 c23c 42d9 24be e4f8 95be 5302 2b3d
000001b0: 4846 ebbe 123c 5ebe dcef aa3e 458d 70be
000001c0: c4ec adbe e3e5 79be ceed fdbd 49af 78bc
000001d0: 3505 9abe a1b0 cfbc af02 453d 2f11 24be
000001e0: 4a0c d0be 55e3 a43e 5ff3 e13e 48d8 aebc
000001f0: 09ec afbe e67f 0fbe 1e76 853e d633 96bd
00000200: 3e0f 96bd 682a 48be 4e2e 7cbe f2b2 fd3d
00000210: 4a5b 543e 884d 11be c6f5 1e3e c4e2 47bc
00000220: c6e4 96be 8c42 31bc d485 cbbe 4f63 afbd
00000230: 66d8 383d 291d 64be ba2b 8fbe f1a0 a9be
00000240: 2ed3 50be f510 75be 689a 3dbd 23a4 f0bd
00000250: 949d 2dbe 247b 1c3f d0bf 453c 2808 cc3d
00000260: e94a 173e 1531 adbe 8ef1 a9bd a0da f7bd
00000270: 2fd2 53be 8611 30be 3908 623d e3fd abbe
00000280: 0e7a b9be 600b fc3c 7d0d 1ebe 5c35 e03e
00000290: 0c3c 79bd 38de 5bbd 3a17 ef3c 6673 e13d
000002a0: 56f0 62bd 9665 adbd 8c3a babe 7303 f6bd
000002b0: 3b15 58be b82f 3fbe df28 c63e 1765 90bd
000002c0: d800 d9be 265c 433e 5e3d 97be c008 50bd
000002d0: 09a4 a7be a745 6fbe 78ff 11be 4aa1 cabe
000002e0: a301 afbe 0b69 acbe 9f62 01be 55cf 8e3d
000002f0: 01fb 8bbd c7e2 01be d9f5 373e 109b 86bd
00000300: cbcf db3d 2370 21be bf08 bb39 d344 1bbd
00000310: 4273 31bd ac5e a6bc e268 0a3d 298e 8dbe
00000320: a3ea 3dbe bdd2 48be 218e fcbd 7b79 c7be
00000330: c018 98be 7dc1 05be adc6 273c f752 9bbe
00000340: da4a 6c3d 8460 0bbe b030 91be 7afc 92be
00000350: aeba 84bd 01e7 4cbe 32b4 7fbe 9482 023d
00000360: fa9a a2bc 9ecf 913c 4575 53be 3460 b6be
00000370: 1d88 95be ba9e 86be 9f1d 543d cbd8 d8be
00000380: ac85 05bd ee2f c6bd 19ea b4be 6c1a 98be
00000390: 2808 023e a325 19be 3b81 debe 6a9e ac3e
000003a0: 43f2 a5be 9eac 22bc d257 c4be 2db5 563d
000003b0: 339f e63d b014 113d b53f 1abe 6621 9e3e
000003c0: 2b70 f03d 21b4 a2be 4d81 78be 2fca 05be
000003d0: bcae d9bd 4f74 babd a742 e1be 3d2b d43c
000003e0: c801 aabe 3ce0 3ebd 313a 46bd 8116 e6be
000003f0: 5337 abbe 8782 7bbe de68 bb3b f41b a3be

layer2.weight f4 [256, 256]
-0.051603377 -0.05435477 -0.06435762 -0.061390243 0.00080973655 -0.08423424 -0.011496658 -0.056022316
0.0036911904 0.021418465 -0.04640664 -0.024165899 0.026140288 0.013337381 -0.05259628 -0.052306723
-0.08166272 0.022729106 -0.100468114 0.016459769 -0.050152566 0.04278869 0.055548973 -0.011264315
-0.04880847 0.033860654 -0.062534355 0.035865124 -0.003214471 -0.034316536 -0.026532419 0.044060882
0.036237497 -0.033960324 -0.05750529 -0.019832466 0.016514905 0.0152464565 -0.07915143 0.0528403
0.0074519184 -0.0647443 0.055818498 0.032877054 -0.06113079 -0.06862416 0.053566705 -0.039947625
0.02407499 0.030586002 -0.009879707 -0.06792719 -0.091492325 -0.10618689 0.017450623 0.016350884
-0.0041144867 0.012830356 0.011320404 -0.025546968 -0.068157256 -0.015060927 -0.07803235 -0.0026348024
0.06164632 -0.0074037323 -0.0014679506 -0.06323398 0.03756576 -0.0707859 -0.05173458 -0.05646801
0.012197915 -0.03578104 -0.047784775 0.017894221 0.053118765 -0.032684654 -0.044349086 -0.046753883
0.023091575 -0.023074433 -0.049408555 -0.05398167 -0.048527528 -0.00809313 -0.0017720961 0.04099863
0.057125375 -0.06275332 -0.03261564 0.028757233 0.05587761 -0.013842776 0.038163044 -0.038709193
0.028186694 0.04340589 -0.04130961 -0.052210655 -0.013146328 -0.06812673 0.018997295 -0.003925989
0.033256292 0.026884936 0.028106937 0.054319263 -0.019730043 -0.002085112 0.0039533223 -0.0020789206
-0.06822111 0.051015906 0.012771159 -0.009336754 -0.044433348 0.0008169344 -0.051794197 0.02014162
-0.005876921 -0.08171464 0.0059103724 -0.061696712 0.041448094 -0.010752417 0.007338804 -0.04247323
-0.022584826 -0.0023001574 -0.09826456 -0.058874976 -0.05745358 -0.065736905 -0.018537581 -0.0044900104
-0.051981255 0.0027690711 -0.010808684 -0.038914546 -0.033870865 -0.021886518 -0.02266378 -0.03796634
-0.025253939 -0.013865923 0.06161902 -0.09769546 0.05720763 -0.07316565 0.023466416 -0.024725944
0.019428946 -0.041127726 -0.0601255 0.007462283 -0.009615272 0.026839525 -0.04032897 0.0328018
-0.06760207 0.009932741 -0.039700218 0.056503903 -0.059862256 -0.09991115 0.024442613 0.029557737
0.044419643 -0.043240186 0.0149850845 -0.04145109 -0.052132994 0.025160253 -0.04743791 -0.023122722
-0.035830155 0.004535936 -0.0026475713 -0.02170625 -0.05719294 0.039302118 -0.08838699 -0.07172827
-0.061515875 0.057846114 -0.07197397 -0.054744847 -0.008285254 0.0041642906 -0.006257325 -0.037368372
-0.039585073 -0.05018644 0.03853977 -0.06430013 0.01446449 -0.05108182 -0.093464375 -0.037543938
-0.10117787 -0.023925997 -0.040668182 0.0045366785 0.016588079 -0.046670843 -0.061779097 -0.018110342
-0.012331787 0.03466884 0.034758497 -0.050699763 0.027368989 0.020197475 -0.041954197 0.002031189
0.035384182 -0.039801188 0.03848837 -0.05364307 -0.008653976 -0.0007165289 -0.018387992 -0.08112077
0.0050536664 -0.035696656 -0.03352478 0.020668749 -0.058894753 -0.04108903 0.01728449 -0.031124294
0.0052698753 -0.06950145 -0.083706096 -0.031977218 -0.0037720846 0.032940526 -0.052004024 -0.04516224
-0.06281312 0.034657147 -0.005333879 -0.0030470772 -0.027809115 0.059800953 -0.026194617 0.017208004
0.028530352 0.04526323 0.01018408 -0.08245713 -0.055591244 0.030235412 -0.0825607 -0.052662548
00000000: 105e 53bd 1ba3 5ebd eecd 83bd 5674 7bbd
00000010: 8044 543a 0083 acbd 7b5c 3cbc a877 65bd
00000020: e6e7 713b c775 af3c e414 3ebd 90f7 c5bc
00000030: 2824 d63c 0885 5a3c 326f 57bd 933f 56bd
00000040: c93e a7bd 6432 ba3c 3ac2 cdbd a3d6 863c
00000050: c76c 4dbd 3243 2f3d 5287 633d f68d 38bc
00000060: 64eb 47bd 78b1 0a3d 0312 80bd 4fe7 123d
00000070: e0a9 52bb 7f8f 0cbd 845a d9bc 2f79 343d
00000080: c56d 143d fb19 0bbd ab8a 6bbd b277 a2bc
00000090: 444a 873c 46cc 793c 251a a2bd 126f 583d
000000a0: 392f f43b a998 84bd f0a1 643d 17aa 063d
000000b0: 4764 7abd d38a 8cbd c368 5b3d 1fa0 23bd
000000c0: ea38 c53c 7f8f fa3c 7fde 21bc 691d 8bbd
000000d0: 5460 bbbd 8378 d9bd 9cf4 8e3c 4af2 853c
000000e0: d1d2 86bb 6a36 523c 3779 393c e047 d1bc
000000f0: 0896 8bbd 1bc2 76bc 6dcf 9fbd a6ac 2cbb
00000100: da80 7c3d 029b f2bb 4068 c0ba d180 81bd
00000110: 8ede 193d 33f8 90bd a4e7 53bd 004b 67bd
00000120: c4d9 473c 248f 12bd f8b9 43bd e796 923c
00000130: 1093 593d 58e0 05bd 63a7 35bd 0081 3fbd
00000140: 8b2a bd3c 9806 bdbc a060 4abd e21b 5dbd
00000150: cdc4 46bd 0c99 04bc ae45 e8ba 2eee 273d
00000160: 4cfc 693d d084 80bd fa97 05bd 4a94 eb3c
00000170: ecdf 643d d0cc 62bc da50 1c3d 888d 1ebd
00000180: c8e7 e63c 60ca 313d 4434 29bd d7da 55bd
00000190: b263 57bc 0786 8bbd 37a0 9b3c 95a5 80bb
000001a0: c037 083d cc3d dc3c 8540 e63c e07d 5e3d
000001b0: e6a0 a1bc 60a6 08bb df8a 813b 803e 08bb
000001c0: 82b7 8bbd 0ef6 503d 203e 513c 2ff9 18bc
000001d0: beff 35bd 8a27 563a 2726 54bd 0a00 a53c
000001e0: 3093 c0bb 015a a7bd ccab c13b b1b5 7cbd
000001f0: 7ac5 293d e82a 30bc 5a7a f03b 69f8 2dbd
00000200: d003 b9bc 3dbe 16bb ee3e c9bd e326 71bd
00000210: 7254 6bbd 12a1 86bd 20dc 97bc f020 93bb
00000220: 4cea 54bd 4e79 353b e816 31bc dc64 1fbd
00000230: 2dbc 0abd 5b4b b3bc 64a9 b9bc 9882 1bbd
00000240: 59e1 cebc e52d 63bc 3a64 7c3d 8f14 c8bd
00000250: 8c52 6a3d dfd7 95bd a43c c03c 108e cabc
00000260: 7429 9f3c 8c75 28bd 2846 76bd 2b86 f43b
00000270: 6089 1dbc 90de db3c fd2f 25bd 2e5b 063d
00000280: f472 8abd efbc 223c b29c 22bd a370 673d
00000290: 2032 75bd 389e ccbd e03b c83c 1123 f23c
000002a0: 5ff1 353d 9f1c 31bd 0084 753c 9ec8 29bd
000002b0: 6889 55bd e01c ce3c 414e 42bd dd6b bdbc
000002c0: a4c2 12bd 30a2 943b e082 2dbb 4ed1 b1bc
000002d0: 2543 6abd 42fb 203d 3d04 b5bd 45e6 92bd
000002e0: 12f8 7bbd 0cf0 6c3d 1767 93bd 223c 60bd
000002f0: e0be 07bc 9a74 883b 3f0a cdbb 940f 19bd
00000300: f523 22bd 4c90 4dbd e1db 1d3d c9af 83bd
00000310: 78fc 6c3c 2c3b 51bd 406a bfbd acc7 19bd
00000320: 5836 cfbd 7400 c4bc ae93 26bd 6ba8 943b
00000330: b9e3 873c ed29 3fbd 140c 7dbd 245c 94bc
00000340: 430b 4abc ea00 0e3d ed5e 0e3d 8eaa 4fbd
00000350: ee34 e03c 2d75 a53c 2ad8 2bbd b21d 053b
00000360: 01ef 103d 9206 23bd fba5 1d3d d6b8 5bbd
00000370: 68c9 0dbc 71d5 3bba 6aa2 96bc a522 a6bd
00000380: 3a99 a53b a836 12bd 4851 09bd 8251 a93c
00000390: a03b 71bd f94c 28bd 3498 8d3c 60f8 febc
000003a0: ebae ac3b c756 8ebd 1a6e abbd 8bfa 02bd
000003b0: 1435 77bb a5ec 063d 2c02 55bd 0afc 38bd
000003c0: 2aa4 80bd a7f4 0d3d d2c7 aebb 79b1 47bb
000003d0: f1cf e3bc d8f1 743d 1896 d6bc cdf7 8c3c
000003e0: 7cb8 e93c f065 393d 21db 263c 49df a8bd
000003f0: a5b3 63bd 41b0 f73c 9615 a9bd afb4 57bd

layer2.bias f4 [256]
-0.023239711 -0.039726812 -0.016473085 -0.22720324 0.13155994 -0.05180497 -0.067147285 0.7471975
-0.024745457 -0.11897189 -0.022070661 -0.12601201 -0.028261377 -0.07199045 -0.027943987 -0.0633007
-0.08572675 -0.03778957 0.05325216 0.09233554 -0.1696643 -0.09890317 0.38713273 0.013885051
-0.050927825 -0.13649587 0.016564954 0.018650737 -0.04471085 -0.03156167 0.029749576 -0.2675105
-0.007612995 -0.01050807 -0.039838295 -0.09557169 -0.08804992 -0.01339333 -0.037306402 -0.072905816
-0.11931165 -0.08952506 -0.18071756 0.09700301 0.43832424 -0.083072945 -0.08607814 0.19472468
-0.122377016 -0.07838131 -0.0155523075 0.009835899 0.028668676 0.24679776 -0.053116143 0.36989233
-0.12834068 0.40215153 -0.048811495 -0.043759033 -0.008035014 -0.13290374 -0.021415511 -0.045517895
0.14449775 -0.084786676 -0.082452156 -0.05955513 -0.08586025 0.07274888 0.15178452 -0.055328686
-0.004921877 -0.14496897 -0.029810498 -0.021789938 -0.06031026 -0.032486584 -0.10825343 -0.03706747
-0.22503933 -0.014662684 -0.0731519 -0.11165782 0.04270679 -0.120373026 -0.15936653 -0.08146393
-0.10517209 0.14577255 0.12912126 -0.021106673 -0.06453645 0.017269904 0.16089964 -0.07619073
-0.14678837 -0.013389604 -0.054611776 -0.07989152 -0.12759314 -0.03904953 0.4326152 -0.06138775
-0.09670861 -0.048776776 -0.02123837 -0.063659586 -0.065470904 0.05989868 -0.03085057 -0.033139054
0.012146799 0.089287244 -0.023252454 0.0064012273 0.1539201 -0.0053673866 -0.023919996 -0.046607565
-0.026594827 -0.0021934141 -0.07886799 -0.09245249 0.00278291 -0.15348779 -0.052046962 -0.07046829
-0.11747365 -0.038248364 -0.03166688 -0.002432834 -0.044410698 -0.08230088 0.032979053 -0.021011295
-0.049771372 -0.060546983 -0.008967793 -0.05270607 -0.020289836 -0.08359646 0.20104343 -0.11134876
-0.03255411 -0.07867681 -0.070949994 -0.32151914 0.45741782 -0.17478932 0.10317362 0.20169158
-0.054085888 0.198133 0.24385709 -0.008686344 -0.016371375 -0.029498968 -0.022729438 -0.02572652
0.14414904 -0.059320293 -0.039883252 -0.089326784 -0.023167323 -0.106934465 0.057958852 -0.23625147
-0.07242368 0.0028748834 -0.062587634 -0.08889257 -0.06819409 -0.032229 -0.15288779 -0.18180282
-0.079508714 0.35731283 -0.041196495 -0.07024964 0.22015266 -0.06385602 0.23638299 -0.057475496
-0.30642214 -0.0032494257 -0.09775324 -0.08942815 -0.042872254 -0.07721953 -0.17639221 -0.09022435
-0.040687107 -0.040949866 0.02092706 -0.0988167 -0.059358068 0.18477651 -0.064647 -0.09357273
-0.089923285 0.42939913 0.031492837 -0.18926765 -0.18437138 -0.014971731 -0.10031248 -0.2868979
-0.21688479 -0.09485264 -0.05544365 0.45714483 -0.11913124 -0.0031804156 -0.019127054 -0.020904006
0.103780515 0.24237451 0.08338289 0.0010461807 0.0044817454 -0.04802005 -0.0037235473 -0.09427666
-0.08380393 -0.072324604 -0.01518697 -0.0011744804 -0.0037581597 -0.024665643 -0.056694075 -0.06614439
-0.08354495 -0.052511115 -0.0051935734 -0.0781404 -0.018975656 -0.069285244 -0.04235613 0.08838106
0.2611681 0.971341 -0.09958106 -0.041974947 -0.17024262 0.0016089707 -0.0810788 -0.087394804
-0.10695076 -0.031533882 0.09264125 0.0053916974 -0.045648184 0.025621515 0.047644425 -0.06794738
00000000: 3561 bebc 95b8 22bd 90f2 86bc f7a7 68be
00000010: a6b7 063e 7331 54bd 8484 89bd 5648 3f3f
00000020: fcb6 cabc 89a7 f3bd 88cd b4bc 4b09 01be
00000030: 6784 e7bc bb6f 93bd caea e4bc cca3 81bd
00000040: 8291 afbd 3cc9 1abd f01e 5a3d 6a1a bd3d
00000050: 7abc 2dbe bf8d cabd 4336 c63e 207e 633c
00000060: b299 50bd 93c5 0bbe 3ab3 873c 6ec9 983c
00000070: b922 37bd cf46 01bd 62b5 f33c 23f7 88be
00000080: 6e76 f9bb 0a2a 2cbc 7b2d 23bd 17bb c3bd
00000090: 8453 b4bd b36f 5bbc 99ce 18bd a54f 95bd
000000a0: ab59 f4bd ea58 b7bd 060e 39be 84a9 c63d
000000b0: 096c e03e 2622 aabd bc49 b0bd e865 473e
000000c0: cda0 fabd 6186 a0bd 1bcf 7ebc c026 213c
000000d0: 92da ea3c 8db8 7c3e 5090 59bd 8762 bd3e
000000e0: bd6b 03be cee6 cd3e 90ee 47bd ac3c 33bd
000000f0: 4ba5 03bc eb17 08be 956f afbc f970 3abd
00000100: 38f7 133e a3a4 adbd addc a8bd 14f0 73bd
00000110: 80d7 afbd 5dfd 943d 676d 1b3e 55a0 62bd
00000120: b247 a1bb bf72 14be 2535 f4bc d080 b2bc
00000130: e407 77bd a710 05bd f9b3 ddbd 0fd4 17bd
00000140: b670 66be c13b 70bc aad0 95bd dbac e4bd
00000150: 51ed 2e3d 2286 f6bd fb30 23be 90d6 a6bd
00000160: 7764 d7bd 6645 153e 5d38 043e e7e7 acbc
00000170: b02b 84bd 9d79 8d3c e0c2 243e e309 9cbd
00000180: b14f 16be 1260 5bbc 99b0 5fbd 2a9e a3bd
00000190: c7a7 02be 66f2 1fbd bd7f dd3e b971 7bbd
000001a0: 2a0f c6bd 28ca 47bd 17fc adbc f55f 82bd
000001b0: 9c15 86bd 5158 753d 56ba fcbc d1bc 07bd
000001c0: 5e03 473c 3bdc b63d ee7b bebc 63c1 d13b
000001d0: 3b9d 1d3e e7e0 afbb def3 c3bc 93e7 3ebd
000001e0: 65dd d9bc 62bf 0fbb 8a85 a1bd bb57 bdbd
000001f0: 7b61 363b e72b 1dbe 322f 55bd ae51 90bd
00000200: 0696 f0bd 51aa 1cbd 21b5 01bd 2e70 1fbb
00000210: fee7 35bd 5d8d a8bd 0b15 073d e11f acbc
00000220: 11dd 4bbd 1d00 78bd a6ed 12bc 52e2 57bd
00000230: df36 a6bc 9f34 abbd 54de 4d3e d20a e4bd
00000240: 7557 05bd 4f21 a1bd 3b4e 91bd 289e a4be
00000250: ab32 ea3e f9fb 32be b14c d33d 3d88 4e3e
00000260: 2a89 5dbd 61e3 4a3e acb5 793e 2b51 0ebc
00000270: 431d 86bc d2a7 f1bc 1633 babc 6cc0 d2bc
00000280: ce9b 133e d6f9 72bd 9f5c 23bd f6f0 b6bd
00000290: 66c9 bdbc 7500 dbbd 4366 6d3d e8eb 71be
000002a0: de52 94bd 8a68 3c3b f22d 80bd 4f0d b6bd
000002b0: 58a9 8bbd 8e02 04bd 9e8e 1cbe 852a 3abe
000002c0: 77d5 a2bd b5f1 b63e a8bd 28bd 0bdf 8fbd
000002d0: b36f 613e f2c6 82bd 620e 723e 6d6b 6bbd
000002e0: 5de3 9cbe 51f4 54bb da32 c8bd 1b26 b7bd
000002f0: d19a 2fbd 4625 9ebd 29a0 34be 8bc7 b8bd
00000300: 86a7 26bd 0cbb 27bd 3a6f ab3c 6960 cabd
00000310: 7221 73bd 0e36 3d3e a565 84bd 0fa3 bfbd
00000320: b329 b8bd 34da db3e a2fe 003d 61cf 41be
00000330: dacb 3cbe fe4b 75bc a170 cdbd 48e4 92be
00000340: 0c17 5ebe 1a42 c2bd e118 63bd e30e ea3e
00000350: 14fb f3bd 856e 50bb 57b0 9cbc e13e abbc
00000360: e18a d43d 0631 783e a6c4 aa3d 0020 893a
00000370: 9bdb 923b acb0 44bd c206 74bb 1f14 c1bd
00000380: 65a1 abbd ec1e 94bd c5d2 78bc 06f1 99ba
00000390: 754b 76bb 9a0f cabc 0c38 68bd b676 87bd
000003a0: 9d19 abbd e515 57bd da2e aabb 1308 a0bd
000003b0: d672 9bbc 6ce5 8dbd 9f7d 2dbd 2101 b53d
000003c0: d3b7 853e cea9 783f 28f1 cbbd eced 2bbd
000003d0: 1554 2ebe 19e4 d23a a40c a6bd 0cfc b2bd
000003e0: 0009 dbbd ac29 01bd b2ba bd3d d6ac b03b
000003f0: 97f9 3abd 36e4 d13c cd26 433d ff27 8bbd

layer3.weight f4 [3, 256]
0.040903114 -0.007153386 -0.008875317 -0.26674452 -0.059616305 0.050515845 -0.060810927 0.22727224
0.04207527 -0.00093115837 0.021486288 0.019948617 -0.04382693 -0.042517845 0.022877164 -0.131687
0.009755604 0.026411477 -0.013546832 -0.11503497 -0.24885426 -0.20088828 0.22282988 0.032519057
-0.05491319 0.00717771 0.043070193 -0.28865272 0.0477963 0.017894603 -0.049704004 -0.18354581
0.0054553906 0.008292857 -0.01193501 0.0015167646 0.014177945 -0.043872524 0.061983965 -0.030325023
0.040906187 0.052705344 -0.161264 0.07790213 0.43756434 0.021703789 -0.013606499 0.01210314
0.02930459 -0.00041393557 -0.03145541 -0.0047786203 -0.18643083 0.22528811 0.009719836 0.21757692
-0.08660702 0.2984153 -0.016460897 0.036356945 -0.018872546 0.005209256 0.10806861 -0.017983625
-0.12668887 0.029541103 -0.037838597 0.0034967028 0.008072935 0.04943374 -0.10288197 0.12105018
-0.31461364 0.099442236 0.008820755 0.027549606 0.016720867 0.046484668 0.019138146 -0.04760161
-0.04130714 0.05771465 0.008720905 -0.0209787 -0.014749587 0.032044653 0.15213752 0.015514213
-0.011458873 -0.14667307 -0.119591534 -0.03364877 0.07626354 0.051766843 -0.014108698 -0.1294771
-0.0257521 -0.007437387 0.0070516467 -0.007192131 -0.007136203 -0.06361844 0.29232058 -0.034412462
0.029881826 -0.6401101 -0.0017471396 0.030446699 -0.03660325 -0.19934514 0.056684516 -0.0007343196
0.06003779 -0.23262018 -0.004438793 -0.00045689425 -0.1478942 -0.00030111615 0.036222048 -0.03693805
0.0004318202 0.036629938 -0.06158933 -0.026493885 -0.007343746 -0.0069647245 -0.03225121 0.018289894
0.012875063 0.009391987 -0.0047931164 0.03395224 0.019380322 -0.03209882 -0.013716528 -0.009861691
0.05221123 0.0124914 -0.022358667 0.0016791852 0.059658434 -0.008187428 -0.14894608 -0.017776363
0.093115866 0.029902749 0.05470899 0.00096618035 0.39814785 -0.08098047 0.04157062 -0.15364432
0.045201212 -0.16829622 0.1017884 0.029754248 -0.010066581 -0.027783444 -0.012595005 -0.012566745
0.09795549 -0.0075785797 -0.040826168 0.032801107 -0.028988248 -0.015850682 -0.11877582 -0.10370204
-0.031200292 0.030343672 0.01774761 -0.067044474 -0.08091866 0.001281645 0.030175047 0.023958217
0.010741855 0.31088677 0.011870442 -0.017347794 0.1037721 -0.014228024 0.24416871 -0.024271026
-0.05721651 0.045510583 -0.007352791 -0.0054816334 0.012081659 0.019385645 -0.21088214 0.009830291
0.028286465 -0.01984177 0.016280591 0.016655674 -0.030791657 -0.08994776 0.021728434 0.032122735
0.011711328 0.073246054 0.15542649 -0.08901447 -0.05738234 -0.0046643172 0.0038826133 -0.25073996
0.00084530306 0.032993946 -0.012980365 0.48698464 0.010451423 0.036451112 -0.0031279086 0.04610838
-0.30674174 -0.041611128 -0.1807153 -0.058558345 -0.00038262556 -0.019703375 0.002802379 0.04211157
0.02695645 0.04596792 0.0011550462 0.016267566 -0.030873515 0.023150329 0.040835183 0.0056313146
-0.008620238 0.04968963 -0.015168689 0.053914204 0.007199628 0.07828889 0.01844625 -0.19075608
0.16670667 0.228061 -0.0054648938 -0.04410632 0.01256609 -0.25219855 0.015815279 -0.011142376
-0.022931283 -0.011486991 0.15436484 0.026858376 -0.0064019104 -0.012003289 0.08222672 0.060112435
00000000: 068a 273d f366 eabb c769 11bc bd92 88be
00000010: 3a30 74bd b4e9 4e3d e114 79bd 0eba 683e
00000020: 1e57 2c3d fb18 74ba 0304 b03c 486b a33c
00000030: de83 33bd 3127 2ebd e468 bb3c f5d8 06be
00000040: f8d5 1f3c e25c d83c 88f3 5dbc 7497 ebbd
00000050: a7d3 7ebe a8b5 4dbe 842d 643e b432 053d
00000060: a7ec 60bd ff32 eb3b 5f6a 303d 4aca 93be
00000070: 0ec6 433d b497 923c 6d96 4bbd 6ff3 3bbe
00000080: 22c3 b23b c3de 073c 0f8b 43bc 2dce c63a
00000090: 9d4a 683c adb3 33bd e6e2 7d3d 2f6c f8bc
000000a0: 3f8d 273d 8fe1 573d 6422 25be 278b 9f3d
000000b0: 6f08 e03e 25cc b13c cbed 5ebc 404c 463c
000000c0: 2e10 f03c 7e05 d9b9 63d7 00bd f995 9cbb
000000d0: b9e7 3ebe edb1 663e f23f 1f3c 7ccc 5e3e
000000e0: 055f b1bd e4c9 983e 01d9 86bc 05eb 143d
000000f0: 999a 9abc 68b2 aa3b 1353 dd3d 6552 93bc
00000100: baba 01be 2f00 f23c a5fc 1abd f028 653b
00000110: 5844 043c 097b 4a3d c8b3 d2bd 28e9 f73d
00000120: 0a15 a1be 5fa8 cb3d ee84 103c b6af e13c
00000130: 33fa 883c b566 3e3d 9ac7 9c3c e8f9 42bd
00000140: ad31 29bd 3266 6c3d 20e2 0e3c 86db abbc
00000150: 40a8 71bc 4141 033d f0c9 1b3e 532f 7e3c
00000160: ffbd 3bbc 7731 16be 68ec f4bd 4bd3 09bd
00000170: 0f30 9c3d 7809 543d 2b28 67bc a595 04be
00000180: 11f6 d2bc 53b5 f3bb 8011 e73b f8ab ebbb
00000190: cfd6 e9bb 624a 82bd 0bab 953e 15f4 0cbd
000001a0: bbca f43c 41de 23bf 4700 e5ba 5b6b f93c
000001b0: 4aed 15bd 2221 4cbe 062e 683d 5b7f 40ba
000001c0: 30ea 753d fc33 6ebe 4b73 91bb 4f8b efb9
000001d0: 9471 17be 20df 9db9 925d 143d 5a4c 17bd
000001e0: ed65 e239 4609 163d 1845 7cbd b409 d9bc
000001f0: cea3 f0bb 5838 e4bb d819 04bd b0d4 953c
00000200: eef1 523c d9e0 193c 930f 9dbb 8111 0b3d
00000210: 7bc3 9e3c 0d7a 03bd 4abb 60bc ee92 21bc
00000220: 71db 553d bba8 4c3c 8629 b7bc 1b18 dc3a
00000230: 675c 743d 9024 06bc 5285 18be bc9f 91bc
00000240: 88b3 be3d 9cf6 f43c 8916 603d 4447 7d3a
00000250: 09da cb3e 17d9 a5bd f445 2a3d f054 1dbe
00000260: e824 393d d855 2cbe 7076 d03d 2ebf f33c
00000270: 4dee 24bc 1b9a e3bc 485b 4ebc c0e4 4dbc
00000280: e39c c83d bc55 f8bb 5739 27bd 745a 063d
00000290: c378 edbc 4ad9 81bc bd40 f3bd bc61 d4bd
000002a0: c197 ffbc 4b93 f83c 7063 913c 9d4e 89bd
000002b0: afb8 a5bd dffc a73a a931 f73c 0644 c43c
000002c0: 9bfe 2f3c 8d2c 9f3e 3e7c 423c f61c 8ebc
000002d0: 7786 d43d a81c 69bc 5d07 7a3e 08d4 c6bc
000002e0: dc5b 6abd 4e69 3a3d aeef f0bb 469f b3bb
000002f0: 27f2 453c a5ce 9e3c 7df1 57be 3b0f 213c
00000300: 04b9 e73c 358b a2bc e05e 853c 7b71 883c
00000310: c93e fcbc 8836 b8bd d4ff b13c 2193 033d
00000320: dfe0 3f3c 0702 963d 1f28 1f3e 384d b6bd
00000330: bf09 6bbd 21d7 98bb 7173 7e3b fd60 80be
00000340: 5497 5d3a a924 073d 99ab 54bc 0d56 f93e
00000350: 723c 2b3c c34d 153d 99fd 4cbb 24dc 3c3d
00000360: 410d 9dbe 6e70 2abd 6e0d 39be e0da 6fbd
00000370: 229b c8b9 f968 a1bc 1ea8 373b 2e7d 2c3d
00000380: c6d3 dc3c dc48 3c3d eb64 973a 8f43 853c
00000390: 74ea fcbc c2a5 bd3c cb42 273d e486 b83b
000003a0: e63b 0dbc 5a87 4b3d 1886 78bc 24d5 5c3d
000003b0: dbea eb3b ed55 a03d 971c 973c 9055 43be
000003c0: 27b5 2a3e d388 693e da12 b3bb d4a8 34bd
000003d0: 00e2 4d3c 2b20 81be 0b8f 813c 838e 36bc
000003e0: 63da bbbc ef33 3cbc d111 1e3e 1906 dc3c
000003f0: 1ec7 d1bb 71a9 44bc 7c66 a83d 7538 763d

layer3.bias f4 [3]
0.38732004 -0.30698755 -0.259918
00000000: d04e c63e 792d 9dbe f913 85be
