model/model_dqn_2.pt (torch, 17456 bytes, 4 tensors)

layer1.weight f4 [256, 11]
0	0xbec7a8aa	-0.38995868
1	0x3f553847	0.83289
2	0xbddb8311	-0.10718358
3	0x3e98e97d	0.29865637
4	0xbe724d17	-0.2366222
5	0xbdfdee29	-0.12398941
6	0xbefde14d	-0.49585953
7	0x3e9d1a84	0.30684292
8	0xbea5126d	-0.3224062
9	0xbe9f2f46	-0.31090754
10	0x3bef295d	0.007298632
11	0x3d993b59	0.07482023
12	0xbd692f28	-0.056929737
13	0xbf570ae4	-0.8400099
14	0x3e3b78ae	0.18307754
15	0xbe4bed5c	-0.19914764
16	0xbee2fded	-0.44334355
17	0x3edb0866	0.42779845
18	0x3d8e4f0c	0.06948671
19	0x3f038700	0.5137787
20	0x3f27e9dc	0.65591216
21	0xbe242098	-0.16028059
22	0x3dab0697	0.08350866
23	0x3f013f1f	0.5048694
24	0x3e35ab10	0.17741036
25	0xbe029a7e	-0.12754247
26	0x3d71b274	0.059008077
27	0xbb27f363	-0.0025627248
28	0x3d729e57	0.059233036
29	0x3e9d1aaf	0.3068442
30	0x3e227aa2	0.15867093
31	0x3e948d52	0.2901407
32	0x3ea4a3a5	0.321561
33	0x3f05e7c5	0.5230678
34	0x3e721e28	0.23644316
35	0xbf7c26fc	-0.98496985
36	0xbe4cf46a	-0.20015112
37	0x3e428aea	0.18998304
38	0xbce49856	-0.02790467
39	0x3e232e74	0.15935689
40	0x3eaac474	0.33353007
41	0x3e1a2301	0.15052415
42	0x3eb0c1e9	0.34522942
43	0x3c3bddfc	0.011466499
44	0x3e1d83c1	0.15382291
45	0xbca5ac30	-0.020223707
46	0xbe1d5d4d	-0.15367623
47	0x3e04bb63	0.12962107
48	0xbe682688	-0.22670949
49	0x3e59370a	0.21212402
50	0xbf00e3cd	-0.50347596
51	0x3e213526	0.15742931
52	0xbe958ff8	-0.29211402
53	0xbe9a35ed	-0.30119267
54	0x3dfd6e05	0.123745
55	0xbd413a00	-0.047174454
56	0xbebe937b	-0.37221894
57	0xbe547727	-0.20748578
58	0xbf554392	-0.8330623
59	0x3eced225	0.40394703
60	0xbe4a063e	-0.19728944
61	0xbe7e31ff	-0.2482376
62	0xbf5aab93	-0.8541805
63	0x3eb9dc62	0.3630095
64	0xbf21af62	-0.6315824
65	0xbeaa4cfa	-0.33261853
66	0x3d13491f	0.035958406
67	0xbeb4f05f	-0.3533964
68	0x3e9ab40d	0.30215493
69	0xbd229e9b	-0.03970204
70	0xbef26473	-0.47342262
71	0x3e81ca8c	0.25349844
72	0xbec74d22	-0.38926035
73	0xbe6f1a37	-0.23349844
74	0x3e916226	0.28395194
75	0xbebccaa9	-0.36873367
76	0xbe575af4	-0.2103079
77	0x3eb68e0d	0.3565525
78	0x3ed72ba3	0.4202548
79	0x3e7a721d	0.24457593
80	0xbe15043c	-0.14552397
81	0xbeb1c19e	-0.3471803
82	0xbea2e92c	-0.3181852
83	0xbd755502	-0.059895523
84	0xbe874ff6	-0.26428193
85	0xbdfe6a5a	-0.12422629
86	0xbe90a7df	-0.28253075
87	0xbe68d49b	-0.22737353
88	0xbceaa239	-0.028641807
89	0x3e0e0528	0.13869154
90	0x3e222049	0.15832628
91	0x3e0b71c5	0.13617618
92	0xbed02dcc	-0.4065994
93	0x3e5dcce9	0.21660198
94	0xbec12765	-0.37725368
95	0xbe99c6bd	-0.30034438
96	0x3e251356	0.16120657
97	0xbea7afa2	-0.32751185
98	0xbf2e997e	-0.6820296
99	0xbe66b667	-0.22530518
100	0x3eb04002	0.34423834
101	0xbebbdde8	-0.3669274
102	0x3e828a9b	0.25496373
103	0xbeda0d1e	-0.42588133
104	0x3eed07b9	0.46294954
105	0x3ea79c9b	0.32736668
106	0xbf00c0b3	-0.50294036
107	0xbf3c855c	-0.7364099
108	0x3d9c1756	0.076216385
109	0x3e2e6767	0.17031632
110	0xbbcdb794	-0.0062779877
111	0xbea695eb	-0.32536253
112	0x3e1c0abf	0.15238474
113	0xbe97d8f4	-0.2965771
114	0x3e9fb649	0.3119376
115	0xbeffbd93	-0.4994932
116	0x3e94c421	0.29055884
117	0x3f180deb	0.5939624
118	0xbdf6e226	-0.12054853
119	0x3f206f7a	0.626701
120	0xbdb5922b	-0.0886577
121	0xbee65cd8	-0.4499271
122	0x3e3479a5	0.17624529
123	0x3e740782	0.23830989
124	0xbe2e93dd	-0.17048593
125	0x3ea5b673	0.3236576
126	0x3e97dd73	0.2966114
127	0xbf0a15e4	-0.5393965
128	0xbf0284e9	-0.50984055
129	0x3e0e5a37	0.13901602
130	0xbe34ca7b	-0.17655365
131	0xbe45b927	-0.19308911
132	0x3d0de7d5	0.03464492
133	0x3dead84c	0.114670366
134	0xbf178b79	-0.59197193
135	0xbeeb4b4e	-0.4595589
136	0xbdb16c59	-0.08663244
137	0x3d2f5e25	0.042814393
138	0x3d2b6e88	0.041853458
139	0x3ef55868	0.4791901
140	0x3e053b55	0.13010915
141	0xbe2f0cbd	-0.17094703
142	0xbd92655e	-0.071482405
143	0xbf81ab05	-1.0130316
144	0xbd01b373	-0.031665277
145	0x3eacfb7c	0.33785617
146	0xbe0f3d77	-0.1398829
147	0xbe13a4e3	-0.14418368
148	0x3d3b82c1	0.045778994
149	0x3dae113e	0.084993824
150	0x3e7d7025	0.24749811
151	0x3e9db019	0.30798414
152	0x3e069051	0.1314099
153	0x3b2b6019	0.0026149808
154	0x3e1a2bec	0.15055817
155	0xbda02541	-0.078196056
156	0xbd56b7b4	-0.052421287
157	0xbefc1628	-0.49235654
158	0x3e9e7d33	0.30954894
159	0xbf106326	-0.5640129
160	0x3ec19f33	0.37816772
161	0x3f1d0821	0.6134053
162	0xbe40ad87	-0.18816195
163	0x3f320ac9	0.69547707
164	0xbe76103c	-0.2402963
165	0x3ea16c29	0.31527832
166	0x3f033a90	0.51261234
167	0xbef45fc0	-0.477293
168	0xbf1b097d	-0.6056135
169	0x3e8db9a3	0.27680692
170	0x3ea7ce0f	0.32774398
171	0xbea63c1f	-0.32467744
172	0x3e2d8b59	0.16947688
173	0xbbe09ff6	-0.0068550063
174	0x3df75e7c	0.12078568
175	0xbf0d7201	-0.5525208
176	0xbe8c2796	-0.27373952
177	0xbf1d8c5d	-0.615423
178	0xbee2591b	-0.44208607
179	0x3ee1af70	0.4407916
180	0x3ee40023	0.44531354
181	0x3d32c836	0.043647967
182	0xbeecdb64	-0.46261132
183	0xbf3262ea	-0.6968218
184	0xbf3c0d18	-0.7345748
185	0xbe0efa19	-0.13962592
186	0x3e876038	0.26440597
187	0xbeb6afc7	-0.35680982
188	0xbe8a0cff	-0.2696304
189	0x3f06d8b8	0.52674437
190	0xbec1424a	-0.37745887
191	0x3ed2395c	0.41059387
192	0x3e91176b	0.2833818
193	0x3e988be4	0.29794228
194	0xbf0ea56c	-0.55721164
195	0x3d21b61d	0.039480317
196	0xbe9a308b	-0.3011516
197	0x3cfe1aea	0.031018693
198	0x3e827b53	0.25484714
199	0x3e5925a6	0.21205768
200	0xbd4e7c1f	-0.05041134
201	0xbe3fa255	-0.18714269
202	0xbe16722d	-0.14691992
203	0xbd9db00c	-0.07699594
204	0xbe3f1f41	-0.18664266
205	0x3ed4da81	0.41572955
206	0x3ef0521d	0.46937647
207	0x3ee2ce6d	0.44298115
208	0x3f045f8f	0.5170831
209	0x3d3f3b39	0.04668734
210	0xbf1452c6	-0.579388
211	0x3f048540	0.51765823
212	0x3e83fb0b	0.25777468
213	0x3e43c355	0.19117482
214	0xbe0b815b	-0.13623564
215	0x3e207749	0.15670504
216	0xbd14bc20	-0.036312222
217	0xbe912eae	-0.28355926
218	0x3c7ca0a3	0.015419158
219	0x3d6d78fa	0.0579767
220	0x3ec945f5	0.39311185
221	0x3ebdd6a9	0.37077835
222	0xbd497416	-0.049182974
223	0xbf06b42a	-0.5261866
224	0xbec3d4c2	-0.3824826
225	0x3e9dfbd7	0.308562
226	0xbe06c87d	-0.13162418
227	0x3f1bcf73	0.6086342
228	0x3f0681e5	0.52541953
229	0xbe38f501	-0.18062212
230	0x3e73d49e	0.23811576
231	0xbedd71e0	-0.43250942
232	0x3f275e14	0.65377927
233	0xbe8a6fdb	-0.27038464
234	0xbd4248cf	-0.047432717
235	0x3e1e5bff	0.15464781
236	0x3d4d146d	0.050068308
237	0xbed70b96	-0.42001027
238	0x3ec1d8eb	0.37860808
239	0xbbcb52b1	-0.006204926
240	0x3e0d67a9	0.13809074
241	0xbf0edfe2	-0.5581037
242	0xbe9ced1b	-0.30649647
243	0xbcfb23b9	-0.030656682
244	0x3efdd291	0.49574712
245	0xbf67689a	-0.90393984
246	0xbefe6c6b	-0.4969209
247	0xbc1bb471	-0.00950347
248	0x3eb44d19	0.3521507
249	0xbeae66c6	-0.34062785
250	0xbf29f56a	-0.663901
251	0x3e922da5	0.2855045
252	0x3f013ddf	0.5048503
253	0xbe809586	-0.25114077
254	0xbf031a78	-0.51212263
255	0xbe8502be	-0.25978655

layer1.bias f4 [256]
0	0x3d923d39	0.071405835
1	0xbe85f035	-0.26159826
2	0xbe9c3c7d	-0.305149
3	0xbeb378ad	-0.35053006
4	0x3db8b9d3	0.09019818
5	0x3ede2475	0.4338719
6	0xbd7bca8e	-0.061472468
7	0xbe3a40e5	-0.18188818
8	0x3cb3ec1a	0.021963168
9	0x3ebb701d	0.36608973
10	0xbe63c54a	-0.22243229
11	0x3dbe948d	0.093056776
12	0xbe186d4e	-0.14885446
13	0x3eb644f6	0.35599488
14	0xbe5301a7	-0.20606099
15	0x3dd0b972	0.10191621
16	0x3e41f808	0.18942273
17	0x3ec0c5a2	0.37650782
18	0xbecbfc71	-0.39841035
19	0xbb17e933	-0.002317977
20	0xbdec6098	-0.11541861
21	0x3eee4fc0	0.4654522
22	0x3e9024f4	0.28153193
23	0x3ced2bff	0.028951643
24	0x3e14a000	0.1451416
25	0x3d57ccf7	0.052685704
26	0xbc9e6c85	-0.019338856
27	0xbdb21796	-0.08695905
28	0xbf01a6e2	-0.5064527
29	0xbe2e709c	-0.17035145
30	0xbd84eb96	-0.06490247
31	0xbe05fc42	-0.1308451
32	0xbe15762a	-0.14595857
33	0x3eebc8e8	0.46051717
34	0xbea62971	-0.32453492
35	0xbf14ee6c	-0.581763
36	0xbe4b49f4	-0.1985243
37	0x3ea15bc9	0.3151534
38	0x3e840e36	0.25792092
39	0x3ddcca94	0.10780826
40	0xbee96770	-0.4558673
41	0x3dfdb435	0.123878874
42	0x3dca60f5	0.09881774
43	0x3e13101c	0.14361614
44	0x3c55b338	0.013043217
45	0x3e775560	0.24153662
46	0xbe6507f4	-0.22366315
47	0x3e44b733	0.1921051
48	0xbea0eb3a	-0.31429464
49	0x3e3a6748	0.18203461
50	0x3da9bbe2	0.08287789
51	0xbdfdf2d9	-0.12399835
52	0xbec92209	-0.3928378
53	0x3da5b6ba	0.08091493
54	0x3f47842c	0.77936053
55	0x3cd812f4	0.026376225
56	0xbcf49ce6	-0.029859971
57	0x3eee2e12	0.46519524
58	0xbe0c75d3	-0.13716821
59	0xbe93e030	-0.2888198
60	0xbe978427	-0.29593012
61	0x3e5d141e	0.21589705
62	0x3eaf83eb	0.34280333
63	0xbdf101a0	-0.11767888
64	0xbea63287	-0.32460424
65	0xbd461f59	-0.04836974
66	0xbe204824	-0.1565252
67	0xbc91ff8e	-0.017822053
68	0x3d3ad62d	0.04561441
69	0xbe0db143	-0.13837151
70	0xbe9797e9	-0.29608086
71	0xbe8d70a3	-0.27624997
72	0x3db05365	0.08609656
73	0xbe3caee3	-0.18426089
74	0x3e3176ac	0.17330426
75	0xbe159b72	-0.14610079
76	0x3fa9058e	1.320482
77	0x3c8c459f	0.017123042
78	0x3f0b01d5	0.5429967
79	0x3ea57cac	0.3232168
80	0xbe9c5e11	-0.30540517
81	0x3cb389e7	0.021916343
82	0xbead8215	-0.33888307
83	0xbcc746ae	-0.024325695
84	0xbe5497c2	-0.20761016
85	0xbdadc358	-0.084845245
86	0xbeae1d8b	-0.34006914
87	0xbe0bf46e	-0.13667461
88	0xbe38a90a	-0.18033233
89	0xbe6beca1	-0.23039486
90	0x3ce37499	0.027765559
91	0xbdd51baa	-0.10405667
92	0xbe7b9b4f	-0.24570964
93	0x3f082ae2	0.53190434
94	0xbf0224cd	-0.50837404
95	0xbeb2ddd8	-0.34934878
96	0xbe9b0ef5	-0.3028485
97	0xbe7139ed	-0.23557253
98	0x3ebd8023	0.37011823
99	0x3eb44b61	0.3521376
100	0xbe7f716d	-0.24945612
101	0xbe9d2c03	-0.3069764
102	0xbec703e6	-0.38870162
103	0xbd4f0fc4	-0.050552145
104	0x3d0b7589	0.034047637
105	0xbd8b420a	-0.06799705
106	0x3d622cd6	0.05521854
107	0xbe43510f	-0.1907389
108	0xbe8ac873	-0.27106056
109	0xbe9bf33a	-0.30459005
110	0xbd275dc8	-0.04086092
111	0x3eb1aa25	0.34700122
112	0xbd995f35	-0.074888624
113	0xbdd3f09d	-0.10348628
114	0x3e98d1ae	0.29847473
115	0x3dc05134	0.09390488
116	0x3e96bf9d	0.29443064
117	0xbe30a24a	-0.17249408
118	0xbe37b672	-0.17940691
119	0x3e1ddefb	0.15417092
120	0x3d38d69d	0.045126546
121	0x3e4bbe17	0.19896732
122	0x3f284801	0.6573487
123	0xbecca8ec	-0.39972627
124	0xbe576c53	-0.21037416
125	0x3e336157	0.17517601
126	0xbe5bfe31	-0.21483685
127	0x3e5116bb	0.20418827
128	0xbe06e78f	-0.1317427
129	0xbe91fcd7	-0.28513214
130	0x3ef45c71	0.47726777
131	0x3ef7e3ce	0.4841599
132	0xbeb15848	-0.34637666
133	0xbd26b471	-0.040699426
134	0xbf384ae5	-0.7198928
135	0xbe726d02	-0.23674396
136	0xbc24ba6f	-0.010054215
137	0x3ea4052c	0.32035196
138	0xbda8e702	-0.08247186
139	0x3d38676f	0.045020517
140	0xbf0410cb	-0.51588124
141	0xbe83e3df	-0.2575979
142	0xbe216afc	-0.15763468
143	0x39c0388c	0.00036663224
144	0x3de061e3	0.109561704
145	0x3c0704cf	0.008240893
146	0xbe9cf131	-0.30652764
147	0xbed2e567	-0.41190645
148	0x3e997f4b	0.2997993
149	0xbe1cb0bb	-0.15301792
150	0x3c4f0dd6	0.012637576
151	0x3e4b8ebc	0.19878668
152	0xbe560e66	-0.2090393
153	0xbe8280e0	-0.2548895
154	0xbe9b47ba	-0.3032816
155	0x3eae51a1	0.34046653
156	0x3e6db014	0.232117
157	0xbeb694cb	-0.35660395
158	0x3e914016	0.28369206
159	0xbe98d03e	-0.29846376
160	0x3da70598	0.08155364
161	0x3e65afb9	0.22430314
162	0x3c0101e6	0.007873988
163	0xbdec8e5c	-0.115505904
164	0xbe7f6eaf	-0.24944566
165	0xbe434b5e	-0.19071719
166	0x3d2cfcb3	0.04223318
167	0x3d45b929	0.048272286
168	0xbeb056fe	-0.3444137
169	0xbdfef958	-0.12449902
170	0x3e7be0a8	0.24597418
171	0xbd83ec8d	-0.06441603
172	0x3de2b1f4	0.11069098
173	0xbe6e3eae	-0.23266098
174	0xbdcb021b	-0.09912511
175	0xbeb2e684	-0.34941494
176	0x3df31c70	0.118706584
177	0xbe892883	-0.2678872
178	0x3c0a0a71	0.008425341
179	0xbe91aad2	-0.28450638
180	0x3eb8614f	0.3601174
181	0xbdfcf706	-0.123518035
182	0xbe703208	-0.23456585
183	0x3eb7600f	0.35815474
184	0xbb12dec3	-0.0022410608
185	0xbe2fa5f1	-0.17153145
186	0xbcd573f8	-0.026056275
187	0xbe939150	-0.28821802
188	0xbe970a08	-0.2949984
189	0xbebd514f	-0.36976096
190	0xbe738fb0	-0.23785281
191	0x3ee449fe	0.44587702
192	0xbe9f6a2f	-0.311357
193	0xbe89c045	-0.26904503
194	0xbe279b34	-0.16367799
195	0xbf024e83	-0.5090105
196	0xbec938d8	-0.3930118
197	0xbe5c34e0	-0.21504545
198	0xbde9fcff	-0.11425208
199	0x3f62d48c	0.8860557
200	0x3e393aee	0.18088886
201	0x3ecc8506	0.3994524
202	0xbe86d3a8	-0.26333356
203	0x3dd77b62	0.1052158
204	0x3ea07ed7	0.3134677
205	0x3dac3a61	0.084095724
206	0x3e947741	0.28997234
207	0xbd8f183a	-0.06987043
208	0x3c45c5be	0.012071071
209	0xbea2bec5	-0.3178617
210	0xbd365b9e	-0.044520967
211	0x3ef1e68f	0.47246215
212	0xbe9430dd	-0.2894353
213	0xbe40884c	-0.18801993
214	0xbe860086	-0.26172274
215	0x3ebb32cd	0.36562195
216	0xbeb09e7f	-0.34495923
217	0xbe374fab	-0.17901485
218	0x3f10eb4d	0.5660904
219	0xbdeb7ed8	-0.11498803
220	0xbea1f36a	-0.31631023
221	0xbe317444	-0.17329508
222	0xbdbbe100	-0.09173775
223	0xbec4002c	-0.3828138
224	0xbea39c5a	-0.31955224
225	0xbea24650	-0.3169427
226	0x3d62a52f	0.055333313
227	0xbe1347b9	-0.14382829
228	0xbe6b3858	-0.22970712
229	0x3f02c394	0.5107968
230	0x3bc988e9	0.006150354
231	0xbe0ef349	-0.13959993
232	0xbeea943d	-0.45816222
233	0xbe6daa64	-0.2320953
234	0x3e7f45b6	0.24928936
235	0xbcbc8f26	-0.023017477
236	0xbe5033fd	-0.20332332
237	0xbe920d4b	-0.28525767
238	0xbe103ccf	-0.14085697
239	0xbe98c665	-0.29838863
240	0xbd1d698f	-0.038430747
241	0xbe9432c2	-0.28944975
242	0x3e14b0b8	0.14520538
243	0xbe9a0c51	-0.30087522
244	0x3f39cedd	0.72581273
245	0x3efac977	0.4898183
246	0xbeb202ac	-0.34767663
247	0xbe1408c0	-0.14456463
248	0xbd95a014	-0.07305923
249	0xbe05349a	-0.13008347
250	0x3e5c0c61	0.21489097
251	0xbeab2233	-0.3342453
252	0xbf0693b9	-0.52569157
253	0xbea6b541	-0.3256016
254	0x3e893ae8	0.26802754
255	0x3c8e60bc	0.01738011

layer2.weight f4 [3, 256]
0	0x3ec8a5f0	0.391891
1	0xbf18d86c	-0.59705234
2	0xbddbc702	-0.10731317
3	0xbe92549d	-0.2858018
4	0xbbf95948	-0.00760952
5	0x3ef1fdd4	0.47263968
6	0x3c1dd139	0.009632402
7	0xbd5881fd	-0.05285834
8	0xbd9bc09c	-0.07605097
9	0x3f20b030	0.6276884
10	0xbf0b2f7b	-0.54369324
11	0x3e3a9ee0	0.18224669
12	0xbdeb8229	-0.114994355
13	0x3e82ab2c	0.2552122
14	0xbf4c6605	-0.7984317
15	0x3e172670	0.14760756
16	0xbe4aa572	-0.19789675
17	0x3ed0e5a7	0.4080021
18	0xbe887794	-0.2665373
19	0x3e0464df	0.12929104
20	0xbf2bd8f4	-0.6712792
21	0x3ed94e66	0.42442626
22	0x3f262720	0.6490345
23	0xbee32643	-0.4436513
24	0x3d353b0f	0.044245776
25	0x3cccbe4d	0.024993086
26	0xbea7246d	-0.32644978
27	0xbf44ac01	-0.7682496
28	0xbe988913	-0.2979208
29	0xbec2e93b	-0.38068566
30	0xbf3ac941	-0.7296334
31	0x3e40e10c	0.18835849
32	0xbe6fd3fc	-0.2342071
33	0x3e9f2cee	0.31088966
34	0xbeae0037	-0.3398454
35	0xbef6e7ba	-0.48223668
36	0xbd0563a0	-0.032565713
37	0x3ee7bfa1	0.4526339
38	0x3e8c5cf6	0.27414674
39	0x3e27e1fc	0.163948
40	0xbf0fab0e	-0.56120384
41	0xbeb1197f	-0.34589764
42	0x3f0452a8	0.51688623
43	0x3d150b74	0.036387876
44	0xbe8879be	-0.26655382
45	0x3d9506c6	0.072766826
46	0xbe8a586b	-0.27020583
47	0x3d2037d1	0.03911573
48	0xbe8f7b24	-0.28023636
49	0x3f60f07a	0.8786694
50	0xbdcf579c	-0.10124132
51	0xbe227b51	-0.15867354
52	0xbee72d73	-0.45151863
53	0xbf192278	-0.5981822
54	0x3f02a2fb	0.5102994
55	0xbf3417aa	-0.7034861
56	0x3ef137fc	0.47113025
57	0x3e1c4846	0.15261945
58	0x3da67a4c	0.08128795
59	0xbcd5e4f1	-0.026110144
60	0x3d7b1a96	0.06130465
61	0x3e5c008e	0.21484587
62	0x3f62190e	0.8831948
63	0xbdc5cc93	-0.0965816
64	0xbd3f21fe	-0.046663277
65	0x3dc857ef	0.09782397
66	0x3d0880d7	0.033325996
67	0xbf50986e	-0.8148259
68	0xbe69044a	-0.22755542
69	0xbec1cd17	-0.37851784
70	0xbe47bca5	-0.19505556
71	0xbd2d2fcf	-0.042281922
72	0x3e5f6eb6	0.21819577
73	0xbf2d89dc	-0.6778848
74	0x3e74b82d	0.23898382
75	0x3d25b91e	0.040459745
76	0x3ea9b611	0.33146718
77	0x3f2d0926	0.67592084
78	0x3ebd9d45	0.3703405
79	0x3ee56fc9	0.44811848
80	0xbe27fe25	-0.16405542
81	0xbcaab7d1	-0.020839604
82	0xbe28e6cb	-0.1649429
83	0xbf415822	-0.75525105
84	0xbe33f911	-0.1757548
85	0xbd0a017d	-0.033692826
86	0x3d86eead	0.065884925
87	0x3d548da1	0.05189288
88	0xbd870658	-0.06593007
89	0xbe39f826	-0.18161067
90	0xbc086e20	-0.008327037
91	0xbf2b0c99	-0.668161
92	0xbe9f9baf	-0.31173465
93	0x3e96049a	0.29300386
94	0xbecfc621	-0.40580848
95	0xbf431a8e	-0.76212394
96	0xbe989807	-0.29803488
97	0xbf2a737a	-0.66582453
98	0x3f096e67	0.53684086
99	0x3ec29018	0.3800056
100	0xbce36523	-0.027758187
101	0xbe891b12	-0.26778466
102	0x3be8bcb5	0.0071025738
103	0xbdf59308	-0.119909346
104	0x3d66f12b	0.05638234
105	0xbd007b51	-0.031367604
106	0xbf42496e	-0.75893295
107	0xbe138fba	-0.14410296
108	0xbf07ed47	-0.5309643
109	0x3a96e647	0.001151272
110	0xbd960875	-0.07325832
111	0x3e7ed3b7	0.2488545
112	0xbef59a00	-0.47969055
113	0xbe1663f5	-0.14686568
114	0x3ddd1a8f	0.10796081
115	0xbd5f0954	-0.054452255
116	0x3ece5987	0.4030268
117	0xbe8d4733	-0.27593383
118	0xbbf65c6f	-0.007518343
119	0x3ed0b33c	0.40761745
120	0x3ecc637f	0.3991966
121	0x3e451a84	0.19248396
122	0x3ef328d5	0.4749209
123	0xbe8b94c9	-0.27261952
124	0xbf00b6c1	-0.5027886
125	0x3ce19668	0.02753754
126	0xbf451f27	-0.7700066
127	0x3edceb7e	0.43148416
128	0xbd8748e7	-0.06605702
129	0xbefc8daa	-0.4932683
130	0x3ec06924	0.37580216
131	0x3efc461c	0.4927224
132	0xbe8bf07c	-0.27331913
133	0x3da9ecac	0.08297095
134	0xbedbf844	-0.4296285
135	0xbe79f3ae	-0.24409363
136	0xbd9961c5	-0.07489351
137	0x3dc68d4b	0.09694918
138	0xbbee0048	-0.007263217
139	0xbf049e40	-0.5180397
140	0xbe99ac9d	-0.30014506
141	0xbe4d30da	-0.20038167
142	0xbd842aa7	-0.06453448
143	0x3eb5f6b5	0.35539785
144	0xbc48fa2b	-0.012266676
145	0xbf00c80c	-0.5030525
146	0xbf4801fd	-0.78128034
147	0xbef2feb6	-0.47459954
148	0x3ef31dc3	0.47483644
149	0xbe7413ef	-0.23835729
150	0x3f08d088	0.53443193
151	0x3ea82b21	0.32845405
152	0xbe597a14	-0.21237975
153	0xbbb3ecf0	-0.0054908916
154	0x3b0fda5e	0.0021950225
155	0x3e227a2e	0.1586692
156	0x3eea12a5	0.4571735
157	0x3d004f69	0.03132573
158	0x3ec7e6d5	0.39043298
159	0x3d922f28	0.071379006
160	0xbf1f0295	-0.62113315
161	0x3e872bac	0.26400506
162	0x3eaa5a2d	0.33271924
163	0x3d7d3783	0.06182052
164	0xbf0eefc7	-0.5583462
165	0xbdfc2a7a	-0.12312789
166	0xbf3ffc42	-0.7499429
167	0x3e81f472	0.2538181
168	0xbe8e1440	-0.27749825
169	0x3ea5d60e	0.32389873
170	0x3f1fc96b	0.62416714
171	0xbea31976	-0.31855363
172	0x3e9af1ff	0.30262753
173	0xbe7e5b62	-0.24839547
174	0x3d32dc24	0.043666974
175	0xbf23eae6	-0.640303
176	0x3ecc795d	0.39936343
177	0xbe4d718b	-0.20062844
178	0xbd983bd2	-0.07433285
179	0xbbc01aee	-0.0058625853
180	0x3ef3c09c	0.47607887
181	0xbed89721	-0.42302802
182	0xbf2e1bfd	-0.68011457
183	0x3ec2e82e	0.38067764
184	0x3ea5c98b	0.32380328
185	0xbcb4417c	-0.022003882
186	0x3f1ed5b9	0.62044865
187	0xbe8c0c37	-0.2735307
188	0xbab682ad	-0.0013924442
189	0xbda1ad92	-0.07894434
190	0xbe504228	-0.20337737
191	0x3ef9cf75	0.4879109
192	0xbeb83bf5	-0.35983244
193	0xbe0cfb86	-0.13767824
194	0xbd5fe4ec	-0.054661676
195	0xbea4644f	-0.3210778
196	0xbebf5aa6	-0.37373847
197	0xbebf2c81	-0.3733864
198	0xbc829dcc	-0.015944384
199	0x3ee79210	0.45228624
200	0x3e31fd16	0.17381701
201	0x3e2f63fc	0.17127985
202	0xbc99c10d	-0.018768812
203	0x3ea36274	0.3191105
204	0x3e3f00a2	0.18652585
205	0x3cba2ca4	0.022726364
206	0x3e8e78e1	0.27826598
207	0xbeca99d6	-0.39570493
208	0x3d409686	0.04701855
209	0xbf21f6ac	-0.63267016
210	0xbf23e926	-0.6402763
211	0x3f09f54a	0.53889906
212	0x3e3ab800	0.18234253
213	0xbf28148e	-0.65656364
214	0xbecf431f	-0.40480897
215	0x3ee6c644	0.4507314
216	0xbeba0f47	-0.3633978
217	0xbe8fe34b	-0.28103098
218	0x3eea5c1f	0.45773408
219	0xbe4383c7	-0.19093238
220	0xbecfc7f4	-0.4058224
221	0xbf0c7e8b	-0.5488059
222	0x3ed9d8fc	0.42548358
223	0xbecdce39	-0.40196398
224	0xbc1f2829	-0.009714165
225	0xbd7beca9	-0.061504994
226	0xbf2f7ecb	-0.68552846
227	0xbe336735	-0.17519839
228	0xbdd0a87e	-0.10188387
229	0x3eb019f6	0.34394807
230	0x3d88a298	0.06671637
231	0xbf486735	-0.7828248
232	0xbe794f9f	-0.2434678
233	0xbde0b7be	-0.10972546
234	0x3f4c4b83	0.7980272
235	0xbdd2431f	-0.102667086
236	0x3c993540	0.01870215
237	0x3c962f54	0.018333115
238	0xbc175034	-0.0092354305
239	0xbf0b9c08	-0.5453496
240	0xbef509f9	-0.4785917
241	0x3cfee7d8	0.031116411
242	0x3e8cddb3	0.27512893
243	0xbf217651	-0.6307116
244	0x3f13428f	0.57523435
245	0x3eb36c4b	0.35043558
246	0xbd1cafac	-0.03825347
247	0xbedec9c3	-0.43513307
248	0xbed773df	-0.4208059
249	0xbf513750	-0.81725025
250	0x3e6a53a5	0.2288347
251	0xbd82b79a	-0.063826755
252	0xbeac4f56	-0.3365428
253	0xbe16b002	-0.14715579
254	0x3f050349	0.5195814
255	0x3e15b75e	0.1462073

layer2.bias f4 [3]
0	0x3f073cc0	0.5282707
1	0x3dd182c8	0.10230023
2	0x3ceaf736	0.028682332
